load/questionable-rnn-bg-1/bg_layer_0_weights.npy (npy, 48128 bytes, 1 tensors)

array f4 [12, 1000]
000000 e5 cf af bc 0a 91 94 bb df b1 fa bd d5 b0 24 3e
       -0.021461437 -0.0045338916 -0.122409575 0.16083081
000010 2b e1 a9 bb 11 02 b7 bb e6 1f 49 bc bc f5 99 bc
       -0.005184313 -0.005584963 -0.012275672 -0.018793933
000020 a4 3f 95 bd 4e cf 31 ba 48 27 d4 bc 52 29 99 bc
       -0.07287529 -0.0006782905 -0.025897637 -0.01869646
000030 cc 55 b0 3a e4 66 f5 3c 2c 91 85 3e 49 be 93 bc
       0.0013453304 0.029956289 0.2608732 -0.018035071
000040 8f 66 a1 bc 13 1c af bc c2 40 a2 bc ef a4 e7 3c
       -0.019702224 -0.021375692 -0.01980627 0.028276889
000050 1d e5 a6 bc 11 9d ec bd 8f ab 0d 3d 39 57 a4 bc
       -0.020372922 -0.115533955 0.03458744 -0.020061122
000060 22 5c 9a bb 84 4d 94 bc 36 05 7b ba 32 55 ab bc
       -0.00471069 -0.018103369 -0.00095756666 -0.020914648
000070 6a 2d be bb 80 38 59 ba 92 e9 b3 bb 29 fd cc bc
       -0.0058037536 -0.0008286312 -0.0054904902 -0.02502306
000080 2e 3e c5 bc ca dd 81 bc e0 8f 1a bb 5f 2c c4 3d
       -0.024077501 -0.015852828 -0.0023584291 0.095787756
000090 1a b2 e7 bc 90 11 cd bb 24 ec a9 bc e1 d4 c6 bc
       -0.028283168 -0.006258197 -0.020742483 -0.02427143
0000a0 3f 2d 1c 3e 56 53 a4 bc 91 5b db 3c 0c c2 61 bc
       0.15251635 -0.020059269 0.02677706 -0.013779175
0000b0 7e 89 c2 bc 56 8b a5 bc bc 38 38 bc b6 82 5f ba
       -0.023747202 -0.020208042 -0.011243995 -0.00085262523
0000c0 19 a0 87 bb 02 2e af bc 87 f2 8a bc d7 64 d0 bc
       -0.004138958 -0.021384243 -0.01696135 -0.02543871
0000d0 bc 08 c2 bc 3c 17 7a ba d0 f3 8e bb 34 0d 8c 3b
       -0.023685805 -0.00095402054 -0.004362561 0.004274035
0000e0 7c c1 ad bc c2 ba c5 bb 69 ea 9c bc 8f 69 48 3e
       -0.021210425 -0.006034226 -0.019154744 0.19571517
0000f0 e6 de db bc 3a 6a 62 be 51 33 9e bc cd 6c 89 39
       -0.026839685 -0.22110835 -0.019311579 0.0002621174
000100 1e 3a 58 bc ae e3 4f bb 17 dd 3d 3e 82 ca 0d bb
       -0.01319745 -0.00317214 0.1854137 -0.0021635597
000110 71 dc 68 3e f5 28 94 bc fa 75 a7 bb 31 17 ab 3e
       0.22740342 -0.018085936 -0.0051104994 0.3341613
000120 d0 df b6 bc 96 6c 90 bc 2d 08 8f bc 70 d2 1c b9
       -0.022323519 -0.017629903 -0.017459953 -0.00014955713
000130 f0 0b 28 bc 4b e2 c7 bc 4c dd d1 3d 26 93 0d 3c
       -0.010256752 -0.024399897 0.10247287 0.00864104
000140 53 e8 52 3e 6c a9 9b bc b0 9a d0 bd d4 eb 30 bc
       0.20596437 -0.019001685 -0.10185754 -0.010798413
000150 2a 30 a5 bc d5 18 f4 3d 9d a5 a1 bc 91 98 92 3c
       -0.020164568 0.11918799 -0.01973229 0.017895015
000160 a2 d2 59 3a c5 80 a8 ba 35 54 8e bc 6b bf 8f 3d
       0.000830928 -0.0012855759 -0.017374137 0.07018932
000170 96 cf 9b bc 47 fb 29 bb 6d 1e d6 3c 56 83 0c bc
       -0.019019883 -0.0025937126 0.026137555 -0.008576235
000180 76 66 b9 b9 7b d2 04 be 71 ec d9 3c 14 8b 66 3b
       -0.0003536229 -0.12970917 0.026602002 0.0035178112
000190 02 66 95 bb cc 98 a3 bc 96 40 7c bd cf dc a8 bc
       -0.0045592794 -0.01997032 -0.06158503 -0.020613102
0001a0 39 7e 3d 3e 50 7a 9d bc bc 09 06 bb 08 8a 97 bb
       0.18505181 -0.019223362 -0.002045258 -0.004624609
0001b0 e2 6f d1 bd 21 30 4d bd 8d 90 84 bb 6f 77 f6 bc
       -0.10226418 -0.050094727 -0.004045552 -0.030086247
0001c0 64 ff 95 bb 80 a4 66 bc 16 36 ad bd 62 e9 d3 ba
       -0.004577564 -0.014077306 -0.08457582 -0.0016167576
0001d0 0a 92 4e 3b 2a 94 ac ba 30 34 cb 3d 73 3d ee bd
       0.0031520152 -0.0013166715 0.09922063 -0.11632814
0001e0 ef 6d 93 bc b4 24 6d ba 6a 8e 88 3c 58 ec 9e bc
       -0.017996756 -0.0009046302 0.01666947 -0.019399807
0001f0 b0 b6 b8 bd 3c 17 03 bd 2f 0b 4e bc 9c 9c c4 bc
       -0.0901922 -0.03200458 -0.012575909 -0.024000458
000200 5c 6d 7f bc 19 59 9e bc 71 4d b3 bc ab 81 03 be
       -0.015590038 -0.019329594 -0.021887513 -0.12842433
000210 1e 5d 6d bc dd 21 7c b8 53 ba 5d be 86 b7 2e 3e
       -0.014487533 -6.011302e-05 -0.21653108 0.17062196
000220 3b bf 49 3e 72 f1 18 bc 4e dd a1 bc dc de d1 bc
       0.19701855 -0.009334909 -0.019758847 -0.025618963
000230 5c fb 2b bb cc 7f 6e 3d 8a 91 95 bc bc d3 78 bd
       -0.002624235 0.058227345 -0.018257875 -0.0607488
000240 8e ce 11 be fe 8e 52 ba 4f cc 2a bc 51 86 7c bc
       -0.1423895 -0.0008032172 -0.0104246875 -0.015412883
000250 65 84 a2 bc bc cc 59 3e b7 5c a4 ba bd 65 6e bc
       -0.019838521 0.21269506 -0.0012539838 -0.0145506235
000260 0a 9f 8e bc a9 37 29 be c0 00 1e 3c e4 eb 3e ba
       -0.01740982 -0.16525139 0.0096437335 -0.0007283075
000270 0f 46 dc ba 3a 14 9f bc ed 67 44 bc e7 2b c5 bc
       -0.0016805547 -0.019418824 -0.011987668 -0.024068786
000280 e1 00 17 3e 30 cb 96 bc cd e3 d4 3d 5f b0 89 ba
       0.14746429 -0.018407434 0.10395012 -0.0010504833
000290 50 6c f7 bd 3b 5d 05 3e 4d a8 ac bc 6e 98 cf 3c
       -0.12081206 0.13023846 -0.021076346 0.025341239
0002a0 b9 d9 28 be f1 21 c9 bc c7 b0 a4 bc e7 12 7a be
       -0.16489305 -0.024552317 -0.020103825 -0.24421273
0002b0 f7 07 a0 bc 5e b3 99 bc 68 1f cb ba d5 ce 6a bd
       -0.019535048 -0.018762287 -0.0015497031 -0.057326157
0002c0 fe cd 8b bb fc 1b 9c bc 31 58 ac 3c f8 de 9e bb
       -0.0042664995 -0.019056313 0.021038147 -0.0048483573
0002d0 4f 77 3f 3e ae 28 d5 3c 3f 52 5f bc ec 6b b0 bc
       0.18697856 0.026020374 -0.013630449 -0.021535836
0002e0 d7 fb de bc 5d b0 45 bc 15 d8 71 bd a4 41 19 3b
       -0.027219696 -0.012065974 -0.059043963 0.0023385072
0002f0 b2 37 ba bb 95 33 5e 3e b8 f8 9a bc 09 e0 9c bc
       -0.005682909 0.21699364 -0.018917426 -0.019149797
000300 50 85 35 be 04 b1 86 bd 98 2c 66 ba cd fd 9b bc
       -0.17726636 -0.06576732 -0.00087804487 -0.01904192
000310 8a 98 95 ba ed f2 cf bc f6 d5 85 bc c0 aa 35 be
       -0.0011413258 -0.02538439 -0.016337376 -0.17740917
000320 92 24 8f bd b5 da 01 3e 73 c2 50 ba 15 5e 33 ba
       -0.06989397 0.12681086 -0.00079635455 -0.00068423274
000330 f7 a5 b8 bd 13 de 85 bb df 49 a1 bc 4f d1 e7 3d
       -0.0901603 -0.004085311 -0.019688545 0.11319219
000340 20 b1 14 3e 0c ab 20 3e b2 0b 26 3a ea d8 ca 3c
       0.14520693 0.15690249 0.000633414 0.024761636
000350 9b 3e 41 bc 18 dd 51 3e 75 53 1a be 57 4a 87 3e
       -0.011794711 0.20494497 -0.15070899 0.26423904
000360 73 59 e1 b9 36 42 0f bb 6d 56 a2 bc 14 2b c4 ba
       -0.0004298199 -0.0021859533 -0.019816602 -0.0014966452
000370 06 8e be bb 5f fd 93 bc c3 9c 0f ba 2d 17 d1 bc
       -0.0058152704 -0.018065153 -0.00054783764 -0.025523746
000380 30 0b a8 3d 58 a1 69 ba 34 06 01 bb 52 7d 83 ba
       0.08205259 -0.0008912287 -0.0019687535 -0.0010031855
000390 ba 9f 32 bc 22 df 9e bc 7f d2 be ba 77 b9 e4 3d
       -0.01090234 -0.019393507 -0.0014558582 0.11168187
0003a0 c3 2d 7e bd f3 1a 43 bc 02 48 58 b8 ac 37 9b ba
       -0.06205536 -0.011908281 -5.1565476e-05 -0.0011842153
0003b0 66 5c b5 bc 99 48 b5 bb 7b 0e 6e be d3 af 49 bd
       -0.022138786 -0.005532336 -0.23247711 -0.049239945
0003c0 84 80 b7 bd 27 30 35 bc b9 5a d4 3b 55 cd 1e bb
       -0.08960059 -0.011058844 0.0064805415 -0.0024231274
0003d0 13 5a b0 bc 09 e8 31 3a d4 ba 96 3d e7 fb 21 bc
       -0.021527326 0.000678659 0.073598534 -0.009886718
0003e0 09 50 ce 3d b0 e3 64 bc 8f 86 24 be 5e a5 a5 bc
       0.10073859 -0.013970301 -0.16066955 -0.020220455
0003f0 ae 55 c6 bc a3 9b ac bc 74 84 97 bb 38 3b 35 bc
       -0.024210777 -0.021070307 -0.004623944 -0.011061482
