load/questionable-rnn-bg-1/bg_layer_0_biases.npy (npy, 4128 bytes, 1 tensors)

array f4 [1000]
-0.009996113 -0.0013292319 -0.13473432 0.1463115 -0.0028699543 0.07349546 -0.0118679665 -0.006592413
-0.1196088 -6.512403e-05 -0.008574218 -0.017327137 0.070934884 0.047527555 -0.08564293 -0.008644127
-0.009031145 -0.009078557 -0.009767801 0.05391374 -0.008657485 -0.035276707 0.002501484 -0.009776997
0.04381321 -0.0065462375 0.07741342 -0.008999368 0.08295347 0.0 0.06736418 -0.023264205
-0.007855627 -0.014457464 -0.015548946 0.068161845 -0.02741325 0.06971677 -0.009565075 -0.0069360505
0.037807845 -0.008054238 0.06245788 -0.014056692 -0.021261431 -0.012804759 -0.011489899 0.075284064
0.069176376 -0.0056384015 -0.016419165 -0.02530892 -0.022864789 0.06987191 0.07666351 0.19393979
-0.008985715 0.074234776 -0.0076509803 -0.08710995 -0.0075636767 -0.16943802 -0.01372286 0.08232626
-0.013966827 0.07716055 -0.049782068 -0.00019733972 -0.077967115 0.0072127185 0.072877295 0.17745894
-0.0099186115 -0.0174602 -0.01718308 0.0 -0.009918264 -0.0077201957 -0.051655855 -0.0072636358
-0.07826428 -0.007736327 -0.04151129 -0.009900904 -0.008878843 0.003191703 -0.013254704 0.063059054
-0.041187122 0.07528469 -0.017203309 0.0071999514 -0.009275931 -0.00031470694 0.047778644 -0.008540829
0.07657768 -0.22800851 0.07419269 0.076961555 0.07632133 -0.009242202 -0.039355155 -0.008607103
-0.033024568 -0.009068749 0.072109304 0.06928766 -0.047244743 0.019028965 0.07207838 -0.036003508
0.079322696 -0.014144603 -0.051786833 0.05943334 0.05635022 0.07549431 -0.15465876 -0.051797356
-0.01718401 0.07577746 0.05661359 -0.011367725 -0.065430276 -0.03172097 -0.010977927 -0.00656433
-0.0041390737 -0.01775866 -0.014045324 -0.039386917 -0.014142689 0.07398607 -0.0775757 -0.0834852
-0.07072542 -0.0010790037 -0.0077099972 -0.025308829 0.047161043 0.01139888 -0.017162224 -0.059102174
-0.018896976 0.0 -0.009904704 -0.014294859 -0.006948806 -0.14177848 0.07797271 -0.014119857
-0.01716686 -0.040825967 0.04147066 0.0 -0.015589328 -0.013204156 -0.012690989 -0.026983568
0.10612161 -0.0042769653 0.0062301694 0.07504435 -0.057651903 -0.02238348 -0.010110321 0.055825066
-0.019914282 -0.022958843 -0.009140145 -0.027252099 -0.011153334 -0.019421898 0.07910718 -0.052331783
0.06919083 -0.009089564 0.05599948 0.07297326 -0.07714105 -0.02528318 -0.014115735 -0.008962325
-0.008368646 -0.011853515 -0.0428496 0.064301625 0.072683476 -0.0554085 -0.008177323 -0.011677097
-0.035227884 -0.03749261 0.07932007 -0.011849851 0.07659545 -0.007106217 -0.017172568 -0.14368594
-0.031248478 -0.09377035 0.076732114 -4.5246645e-05 -0.21568292 0.083172746 -0.0071370536 0.092382684
-0.014768037 0.22379124 0.078178704 0.049650796 -0.011385824 -0.09809738 -0.1329481 -0.14865486
0.07420884 0.06581224 -0.007323754 0.07180552 0.0690466 -0.01727447 0.07227703 -0.025309028
0.22224204 -1.0254028e-05 -0.00055513764 -8.240729e-05 -0.009928166 -0.009055481 -0.00014140112 0.03443638
0.026023485 -0.011475642 0.07768181 0.07998014 -0.0099075865 0.07399137 -0.067146346 -0.04428974
-0.101900645 -0.009892532 0.06847518 0.07778465 -0.01014889 0.075003184 0.12666601 -0.009914213
0.049235836 -0.014133025 -0.024021875 -0.006892582 -0.007117968 -0.010005595 0.075298935 -0.0103669865
00000000: bdc6 23bc 9f39 aeba cbf7 09be afd2 153e
00000010: d815 3cbb ca84 963d dc71 42bc 2b05 d8bb
00000020: 75f5 f4bd 3393 88b8 e07a 0cbc a4f1 8dbc
00000030: 4f46 913d 41ac 423d 8f65 afbd 19a0 0dbc
00000040: 5ef7 13bc 3abe 14bc 2009 20bc a7d4 5c3d
00000050: 20d8 0dbc 4f7e 10bd f0ef 233b b32f 20bc
00000060: 7b75 333d d281 d6bb ed8a 9e3d 1672 13bc
00000070: 82e3 a93d 0000 0000 3bf6 893d 9394 bebc
00000080: e3b4 00bc 00df 6cbc 02c1 7ebc 7098 8b3d
00000090: c191 e0bc aac7 8e3d d5b6 1cbc cf47 e3bb
000000a0: 66dc 1a3d ecf5 03bc d5d3 7f3d 0a4e 66bc
000000b0: 742c aebc 0dcb 51bc 2140 3cbc 882e 9a3d
000000c0: 58ac 8d3d 57c2 b8bb 7c81 86bc a754 cfbc
000000d0: f04e bbbc 0119 8f3d c201 9d3d 2798 463e
000000e0: d238 13bc 6708 983d 13b5 fabb b466 b2bd
000000f0: b8d8 f7bb 2981 2dbe d9d5 60bc ac9a a83d
00000100: 1ed5 64bc 5a06 9e3d 48e8 4bbd faec 4eb9
00000110: 39ad 9fbd ab58 ec3b b140 953d ccb7 353e
00000120: ac81 22bc b108 8fbc 88c3 8cbc 0000 0000
00000130: 3780 22bc b2f9 fcbb 1795 53bd cb03 eebb
00000140: 0649 a0bd 0481 fdbb be07 2abd 6737 22bc
00000150: 9178 11bc e42b 513b 422a 59bc 1b25 813d
00000160: d4b3 28bd dc2e 9a3d f4ed 8cbc 92ed eb3b
00000170: 13fa 17bc 40ff a4b9 8ab3 433d d5ee 0bbc
00000180: c2d4 9c3d 107b 69be 56f2 973d 059e 9d3d
00000190: 5c4e 9c3d 9b6c 17bc df32 21bd ce04 0dbc
000001a0: c544 07bd 1795 14bc 0bae 933d b0e6 8d3d
000001b0: b483 41bd a2e2 9b3c d49d 933d 6a78 13bd
000001c0: f073 a23d c4be 67bc 6e1e 54bd 6070 733d
000001d0: 7dcf 663d c39c 9a3d de5e 1ebe 7729 54bd
000001e0: 7bc5 8cbc 3731 9b3d a7e3 673d b23f 3abc
000001f0: 4f00 86bd d9ed 01bd c3dc 33bc 9719 d7bb
00000200: 11a1 87bb 9c7a 91bc 5c1e 66bc 2d54 21bd
00000210: bdb6 67bc 0286 973d 02e0 9ebd 4afa aabd
00000220: 7dd8 90bd 5b6d 8dba 25a4 fcbb 7654 cfbc
00000230: f02b 413d 5ec2 3a3c cb97 8cbc 1f15 72bd
00000240: d5cd 9abc 0000 0000 5747 22bc fc34 6abc
00000250: cfb2 e3bb 612e 11be 28b0 9f3d f956 67bc
00000260: 84a1 8cbc 2139 27bd 24dd 293d 0000 0000
00000270: 616a 7fbc 3f56 58bc deed 4fbc a50c ddbc
00000280: 4956 d93d c925 8cbb 7326 cc3b dab0 993d
00000290: 6724 6cbd 8f5d b7bc c3a5 25bc d3a8 643d
000002a0: 4723 a3bc 2f14 bcbc 8cc0 15bc cb3f dfbc
000002b0: 79bc 36bc ac1a 9fbc f202 a23d da59 56bd
000002c0: ecb3 8d3d 65ec 14bc b65f 653d 0173 953d
000002d0: 20fc 9dbd ac1e cfbc af45 67bc b7d6 12bc
000002e0: a51c 09bc 3f35 42bc 1083 2fbd 92b0 833d
000002f0: 13db 943d 06f4 62bd 2efa 05bc 4b51 3fbc
00000300: 1d4b 10bd da91 19bd 9072 a23d e125 42bc
00000310: 13de 9c3d 45db e8bb 7cad 8cbc 6822 13be
00000320: cffc ffbc ab0a c0bd ba25 9d3d 37c7 3db8
00000330: fcdb 5cbe 7956 aa3d f2dd e9bb 2233 bd3d
00000340: a3f5 71bc 8829 653e 281c a03d a25e 4b3d
00000350: 9b8b 3abc 47e7 c8bd 8c23 08be fb38 18be
00000360: cefa 973d 91c8 863d 1afc efbb c60e 933d
00000370: 4e68 8d3d 3083 8dbc fb05 943d e154 cfbc
00000380: 6b93 633e b708 2cb7 a886 11ba 14d2 acb8
00000390: bfa9 22bc 715d 14bc 1345 14b9 290d 0d3d
000003a0: 342f d53c 5504 3cbc a417 9f3d a1cc a33d
000003b0: 6e53 22bc ca88 973d 0684 89bd 2969 35bd
000003c0: 49b1 d0bd 4914 22bc b73c 8c3d 8f4d 9f3d
000003d0: 8847 26bc 459b 993d bcb4 013e 396f 22bc
000003e0: 84ab 493d 348e 67bc 86c9 c4bc 2bdb e1bb
000003f0: d83d e9bb 82ee 23bc 5436 9a3d 4bda 29bc
