load/questionable-rnn-bg-1/bg_layer_batch_norm_0_1.npy (npy, 4128 bytes, 1 tensors)

array f4 [1000]
0.0037097472 -0.0024090062 0.18851587 -0.09097479 -0.0021012453 -0.11541649 -0.0037394164 0.0024893486
-0.002702388 0.002328033 -0.027306268 -6.20277e-05 -0.12342555 0.04487788 -0.02555922 0.0021555147
0.0037004398 0.003727473 0.0036849272 0.05835067 0.0037146234 0.010547362 -0.0006435079 0.003471757
-0.053456627 0.0025349522 -0.09607128 0.003722262 -0.117418684 -0.0023303463 0.07757917 0.0023014436
-0.037639212 -0.0025156778 -0.040243782 0.10438478 0.0022936843 -0.105272606 0.003724716 -0.051013988
0.012169792 0.0037164115 0.049204454 -0.002291564 0.0021849105 0.003603201 0.002411975 -0.11785469
-0.116873406 -0.035367522 0.002239989 0.0023012464 -0.0021855147 -0.111074425 -0.09924405 -0.06925612
0.003723538 -0.11708195 0.0037161997 -0.05236305 -0.03876672 0.00025444385 0.0026898212 -0.104897246
-0.0025256001 -0.11466178 -0.07647555 0.0023219846 -0.05173926 -0.101259366 -0.10997331 -0.054439582
0.003665369 -0.0009663521 0.0006230328 0.002048475 -0.0023178943 -0.04526714 0.19971251 -0.04938089
-0.047284946 0.0037155875 0.0040446436 -0.002342306 0.003726412 -0.11890448 0.0036950533 -0.050040476
0.00013061358 -0.099090874 7.886256e-05 0.10910229 0.0037229657 -0.0021478364 0.059979178 0.0025956235
-0.109926954 0.13577671 -0.1529743 -0.100993134 -0.1047676 0.003702919 0.0023078653 0.0033531452
-0.13556792 0.0025379206 -0.11414422 -0.104521036 0.015541816 0.054860555 -0.098536715 0.00013718712
-0.13003947 -0.0036203451 -0.0059212525 -0.0705577 -0.13088284 -0.11252244 0.13651052 0.05183799
0.0005573286 -0.10154901 0.054619893 0.0033546016 -0.051644474 -0.0021272385 -0.0030940457 -0.05173692
-0.025222592 -2.9013233e-07 0.0033699942 0.010658209 -0.0031326558 -0.1312722 -0.045043886 0.008363279
-0.045037583 0.0008398105 0.0037121505 0.0020918625 -0.023478054 0.031576794 -4.8055786e-05 0.015335261
0.0018452571 -0.002322714 -0.0023889984 -0.0036030891 0.0037007371 -0.09994526 -0.113187924 -0.003120982
0.00019782945 -0.0053193555 0.008247419 0.0022193028 -0.0446516 0.0028050954 0.002064075 -0.09133342
-0.043959554 0.003695364 -0.008819615 -0.11713233 0.028197795 0.016792702 0.0037257713 0.028855149
0.035432506 0.0021151141 0.003717063 -0.0713316 0.0037128858 -0.002713945 -0.11113542 0.0033058121
-0.10426669 0.0037096636 0.20294149 -0.10400931 -0.029032394 0.20068051 -0.0035389033 0.0037185003
-0.03594171 -0.0029593639 0.025923356 0.02383132 -0.10121486 -0.0807622 0.0024265128 0.0036919145
0.008530862 -0.0013729915 -0.101269655 0.00369014 -0.12358404 -0.05686123 0.0010892176 0.009799021
-0.09467952 0.012499365 -0.10831386 0.0022638552 0.008538072 -0.14228986 0.0036968458 -0.0386902
0.102082945 0.17541623 -0.11106344 -0.053417698 0.0035574175 -0.039325364 -0.030095488 -0.04299978
-0.123674534 -0.121283635 0.0037045411 -0.1071892 -0.10914978 -1.4003943e-05 -0.12717764 0.002288251
-0.04332493 -0.002296178 0.0020291838 0.0021273626 -0.00220537 0.0026474553 -0.0023195336 0.0025475947
-0.0051449463 0.002548084 -0.10237331 -0.11133813 0.0036723176 -0.11222847 -0.0050495104 0.0013870518
-0.074090995 -0.0022689342 -0.15458027 -0.12328146 0.0037245096 -0.13164778 -0.052598275 -0.0023488533
-0.14705686 -0.0025903482 0.06267894 0.0036950621 -0.049951687 0.003718757 -0.10479228 0.0021266015
00000000: 3b1f 733b 6be0 1dbb 4e0a 413e fe50 babd
00000010: 0cb5 09bb 7b5f ecbd ff10 75bb 5724 233b
00000020: 8c1a 31bb ea91 183b 65b1 dfbc de14 82b8
00000030: 89c6 fcbd ded1 373d 9261 d1bc 8943 0d3b
00000040: 1483 723b 9f48 743b d27e 713b 1d01 6f3d
00000050: 0a71 733b d8ce 2c3c 16b1 28ba 6b86 633b
00000060: 56f5 5abd 7121 263b 05c1 c4bd 32f1 733b
00000070: 3579 f0bd b9b8 18bb d4e1 9e3d d1d3 163b
00000080: 932b 1abd 12de 24bb aad6 24bd b0c7 d53d
00000090: a351 163b 2a99 d7bd 5d1a 743b 0bf4 50bd
000000a0: cf63 473c 0a8f 733b 9c8a 493d 102e 16bb
000000b0: b730 0f3b ae23 6c3b 3a12 1e3b cd5d f1bd
000000c0: 535b efbd 89dd 10bd c7cc 123b 82d0 163b
000000d0: da3a 0fbb fd7a e3bd 7740 cbbd 27d6 8dbd
000000e0: 9a06 743b a9c8 efbd 7c8b 733b a37a 56bd
000000f0: dac9 1ebd e066 8539 b647 303b 5ed4 d6bd
00000100: 8a84 25bb ccd3 eabd 379f 9cbd 702c 183b
00000110: 8cec 53bd 1261 cfbd b039 e1bd 0afc 5ebd
00000120: b036 703b cb52 7dba 0653 233a b53f 063b
00000130: d0e7 17bb 096a 39bd 7081 4c3e 9e43 4abd
00000140: dcad 41bd 3781 733b ee88 843b 6081 19bb
00000150: d236 743b 3184 f3bd b528 723b 3ef7 4cbd
00000160: 51f5 0839 28f0 cabd 0463 a538 0571 df3d
00000170: 00fd 733b b7c2 0cbb baac 753d 561b 2a3b
00000180: 6221 e1bd 0d09 0b3e 4ba5 1cbe 7dd5 cebd
00000190: 6590 d6bd acac 723b 8e3f 173b 71c0 5b3b
000001a0: 51d2 0abe 3e53 263b 72c4 e9bd 200f d6bd
000001b0: 1aa3 7e3c 76b5 603d 9ecd c9bd e3d9 0f39
000001c0: 1129 05be 5043 6dbb 1107 c2bb 8e80 90bd
000001d0: 2706 06be 2a72 e6bd 6ac9 0b3e 1254 543d
000001e0: b019 123a edf8 cfbd 1cb9 5f3d e0d8 5b3b
000001f0: 2889 53bd 2469 0bbb 79c5 4abb 18ea 53bd
00000200: 9c9f cebc 7cc3 9bb4 1fdb 5c3b c59f 2e3c
00000210: 3e4d 4dbb 386c 06be f07f 38bd 2206 093c
00000220: 5479 38bd bb26 5c3a 8d47 733b a117 093b
00000230: 0c55 c0bc ab56 013d 828f 49b8 bf40 7b3c
00000240: 8edc f13a ad38 18bb be90 1cbb ce21 6cbb
00000250: 1188 723b 1ab0 ccbd 12cf e7bd 6489 4cbb
00000260: 7070 4f39 fd4d aebb 2f20 073c b971 113b
00000270: 99e4 36bd b1d5 373b 6f45 073b 040d bbbd
00000280: ef0e 34bd ec2d 723b 2580 10bc 13e3 efbd
00000290: 10ff e63c d990 893c 122c 743b a261 ec3c
000002a0: ad21 113d ba9d 0a3b f899 733b 4d16 92bd
000002b0: e353 733b 71dc 31bb f89a e3bd 53a6 583b
000002c0: c689 d5bd d41d 733b e5cf 4f3e d502 d5bd
000002d0: 58d5 edbc 317f 4d3e f2ec 67bb 15b2 733b
000002e0: 9d37 13bd e3f1 41bb 385d d43c e739 c33c
000002f0: bd49 cfbd a766 a5bd 2106 1f3b 0cf4 713b
00000300: 07c5 0b3c f3f5 b3ba 7766 cfbd 47d6 713b
00000310: a119 fdbd 52e7 68bd 14c4 8e3a 138c 203c
00000320: 56e7 c1bd 23ca 4c3c a8d3 ddbd 305d 143b
00000330: 45e3 0b3c 6fb4 11be c846 723b 9d79 1ebd
00000340: dd10 d13d 50a0 333e 3b75 e3bd 84cc 5abd
00000350: 9023 693b a213 21bd d08a f6bc 8a20 30bd
00000360: 1349 fdbd 8e63 f8bd e3c7 723b 0386 dbbd
00000370: eb89 dfbd 7af2 6ab7 db3a 02be 7bf6 153b
00000380: 7b75 31bd 797b 16bb 0efc 043b 396b 0b3b
00000390: f887 10bb ee80 2d3b 5103 18bb 8cf5 263b
000003a0: f096 a8bb c1fd 263b 19a9 d1bd 3f05 e4bd
000003b0: 44ab 703b 0ad8 e5bd 5d76 a5bb bccd b53a
000003c0: 05bd 97bd 66b2 14bb 4a4a 1ebe fd7a fcbd
000003d0: e716 743b adce 06be 4a71 57bd 38ef 19bb
000003e0: 1396 16be d5c2 29bb d15d 803d db28 723b
000003f0: 249a 4cbd 64b6 733b 569d d6bd 745e 0b3b
