load/questionable-rnn-bg-1/critic_layer_0_biases.npy (npy, 4128 bytes, 1 tensors)

array f4 [1000]
0	0xbd18604c	-0.03720121
1	0xbbc40a38	-0.0059826635
2	0xbd4bfa93	-0.049799513
3	0x3b7deb44	0.0038744966
4	0xbcfc52aa	-0.030801136
5	0x3e78e543	0.24306206
6	0x3dda5be4	0.10662058
7	0xbd9e3038	-0.07724041
8	0xbbc3f61e	-0.005980267
9	0x3cdfe5fb	0.027331343
10	0xbc85be8f	-0.016326217
11	0xbb34489e	-0.0027509104
12	0xbcce7e81	-0.025206806
13	0x3dcbcc53	0.09951081
14	0xbb995d31	-0.0046802987
15	0x3d9ade39	0.07561917
16	0x3d08df99	0.033416364
17	0x3d7d8157	0.061890926
18	0x3c3a2b88	0.011362918
19	0xbd07213f	-0.03299069
20	0xbcde25d8	-0.027117655
21	0xbbc31f32	-0.0059546465
22	0xbc878e67	-0.016547395
23	0xbbc41d41	-0.0059849326
24	0xbccfc813	-0.025363958
25	0x3e1d42d4	0.15357524
26	0xbc4ace84	-0.012378339
27	0xbd37a29e	-0.04483282
28	0xbbc3d65a	-0.0059764804
29	0xbe21d270	-0.15802932
30	0xbd0be986	-0.034158252
31	0xbbc289dc	-0.0059368443
32	0x3e24b4ce	0.16084597
33	0xbc289553	-0.010289508
34	0xbd84d8fe	-0.064867005
35	0xbba59475	-0.005053098
36	0xbbc2ff9c	-0.005950881
37	0xbd1f67b9	-0.038917277
38	0xbd87e7d1	-0.06636012
39	0xbcfe052c	-0.031008326
40	0xbd71206b	-0.058868807
41	0x3c8d30fd	0.017235273
42	0xbd4bc9ac	-0.049752876
43	0x3d5ce349	0.053927694
44	0x3db953da	0.090491965
45	0xbce0c58f	-0.027437953
46	0x3d3d78e4	0.04625787
47	0xbcaff1d6	-0.021477621
48	0xbcc2efff	-0.02379608
49	0xbc52af45	-0.01285917
50	0x3d131171	0.035905305
51	0xbbd6d8e3	-0.0065566166
52	0x3dbbd14b	0.09170779
53	0xbd3d9eda	-0.04629407
54	0xbe186577	-0.14882456
55	0xbc4dfa4c	-0.012571882
56	0xbc6e446a	-0.014542678
57	0xbc3b198c	-0.011419665
58	0xbc5edbc9	-0.013602206
59	0x3e0823ec	0.13294953
60	0xbbc48efa	-0.0059984894
61	0xbcacdec3	-0.021102315
62	0xbd1cc4f9	-0.038273785
63	0xbd820936	-0.06349413
64	0xbbc45553	-0.0059916168
65	0x3dc9c43d	0.098518826
66	0x3c54af25	0.012981211
67	0x3d36e969	0.04465619
68	0xbc286c7a	-0.010279769
69	0x3c3e8fd6	0.011630973
70	0xbd94141b	-0.07230397
71	0xbc98ae5b	-0.018637827
72	0xbd0b10a8	-0.03395143
73	0x3db74ba3	0.089499734
74	0xbdc53a2a	-0.096302345
75	0xbb921105	-0.0044575953
76	0xbc25b0db	-0.010112966
77	0x3db91ba4	0.09038475
78	0xbc8ba4b4	-0.01704631
79	0x3cbb6892	0.022877011
80	0x3d1cdf00	0.038298607
81	0xbb94bb23	-0.00453891
82	0xbca5b7da	-0.020229269
83	0xbc3a2b9d	-0.011362937
84	0x3e13c467	0.1443039
85	0xbbc36ab8	-0.0059636496
86	0xbb9c6c1c	-0.00477363
87	0xbdaaf59d	-0.08347628
88	0xbc2824bd	-0.010262665
89	0xbe3771a8	-0.1791445
90	0xbbf19f35	-0.0073737153
91	0xbd1b143d	-0.037861098
92	0xbbc3f533	-0.0059801578
93	0xbb8112af	-0.003938995
94	0xbd45f69e	-0.048330896
95	0xbc9374e4	-0.018000074
96	0x3dd8c3c9	0.10584218
97	0x3d0f4624	0.034979
98	0xbd1f5b47	-0.03890541
99	0xba0338d3	-0.0005005721
100	0x3df3d4a1	0.1190579
101	0x3d15a261	0.03653181
102	0xbcd740f3	-0.026276087
103	0xbd68bd53	-0.05682118
104	0x3dbf9e8a	0.09356411
105	0xbdd3abbc	-0.1033549
106	0xbcdc10d3	-0.026863491
107	0xbde75325	-0.112951554
108	0xbd263d03	-0.04058553
109	0xbd40c5c7	-0.047063615
110	0xbd0bec27	-0.03416076
111	0xbcb24e98	-0.021765992
112	0xbd250519	-0.040288065
113	0xbcecf409	-0.028924959
114	0xbbbf7b22	-0.005843536
115	0x3d9f055a	0.077646926
116	0xbd30fab5	-0.043207843
117	0xbc0be49f	-0.008538394
118	0xbbc2f655	-0.005949775
119	0xbd1567d7	-0.036475983
120	0x3dc4c176	0.09607212
121	0xbc8bce55	-0.01706616
122	0x3dfd36f7	0.12363999
123	0x3d10a6a9	0.03531519
124	0xbca5e9d1	-0.020253094
125	0xbc6df4c2	-0.014523687
126	0xbc720841	-0.014772476
127	0x3d19fe74	0.03759618
128	0xbbab3880	-0.005225241
129	0xbcbd7b19	-0.023129987
130	0xbd7fe436	-0.0624735
131	0xbe11206b	-0.14172523
132	0xbd69f76c	-0.057120726
133	0xbd1cdf38	-0.038298815
134	0x3d6cc4a4	0.05780472
135	0xbcb97058	-0.022636577
136	0xbd853271	-0.065037616
137	0xbbfa5f13	-0.0076407283
138	0xbd0a8517	-0.03381833
139	0xbda989bf	-0.08278226
140	0xbb87d4d4	-0.004145244
141	0xbc9bff48	-0.019042626
142	0xbcbd7f06	-0.023131859
143	0x3d28101b	0.041030984
144	0xbd20a6c8	-0.039221555
145	0x3d0b3d58	0.03399405
146	0x3ca81d3b	0.02052175
147	0xbd2efe79	-0.042723153
148	0xbc87bb1e	-0.016568717
149	0xbbc3e3d9	-0.0059780893
150	0xbd00327c	-0.031298146
151	0xbbc43eba	-0.005988923
152	0xbbc4aee4	-0.006002294
153	0x3c1bc2ad	0.009506864
154	0xbbd615e8	-0.006533373
155	0x39f73805	0.0004715325
156	0x3e2d5a07	0.16928874
157	0xbbd6a756	-0.0065507097
158	0xbb98a7f8	-0.0046586953
159	0xbcba31c3	-0.022728806
160	0xbc10c804	-0.00883675
161	0x3c7a6919	0.015283846
162	0xbbc104ce	-0.0058904653
163	0xbbdd49d7	-0.006753187
164	0x3dc188b5	0.09449903
165	0x3ceb04ba	0.028688777
166	0xbbc40a7d	-0.0059826956
167	0xbcf69a2b	-0.03010281
168	0xbc5e3fc1	-0.013565005
169	0xbbd8177d	-0.006594597
170	0xbd1cf1fd	-0.038316716
171	0x3ad5d949	0.0016315366
172	0x3e0c8fd7	0.13726746
173	0x3dd62765	0.10456733
174	0xbe63000e	-0.2216799
175	0xbcb1f0ae	-0.02172121
176	0x3def0301	0.11670495
177	0x3c4adb61	0.012381406
178	0xbbd7ab72	-0.006581717
179	0xbc4f7252	-0.012661533
180	0xbd291ac4	-0.04128529
181	0xbc5497d9	-0.012975656
182	0xbd0789af	-0.03309029
183	0xbbdc62a8	-0.006725628
184	0xbd5c3e39	-0.053770278
185	0x3d6fef63	0.058577906
186	0xbbc330e8	-0.005956758
187	0xbcd80bfa	-0.026372898
188	0xbbb0ff17	-0.005401503
189	0xbd1a3320	-0.037646413
190	0x3da04b9b	0.078269206
191	0xbc466c14	-0.012110729
192	0xbcc49847	-0.023998393
193	0xbc7b060e	-0.015321268
194	0xbcaa9b0c	-0.020825885
195	0xbdb40d0e	-0.087915525
196	0xbc079448	-0.008275099
197	0x3c34ef12	0.011043327
198	0xbcd4a402	-0.025957111
199	0x3e3d21b6	0.18469891
200	0xbd625ad9	-0.05526242
201	0xbd29529d	-0.04133855
202	0xbdc77621	-0.09739328
203	0xbca3d6df	-0.01999992
204	0x3dab1fe2	0.083556905
205	0xbb899809	-0.004199032
206	0xbcfd42fa	-0.030915726
207	0xbdb76644	-0.089550525
208	0xbc9797ea	-0.018505055
209	0xbbd9a421	-0.00664188
210	0xbcd33b32	-0.025785062
211	0x3dbecd5b	0.09316512
212	0xbd6b8922	-0.057503827
213	0xbdd3dc80	-0.103447914
214	0xbcd7e888	-0.026355997
215	0xbcb5ad3b	-0.02217733
216	0xbbe6e9c6	-0.007046911
217	0x3bb4f994	0.005522916
218	0x3d30e804	0.043190017
219	0xbbc3ad65	-0.005971598
220	0x3d56b698	0.05242023
221	0xbc08ec92	-0.008357184
222	0xbd146d81	-0.036237244
223	0x3bcc72c0	0.006239265
224	0x3de82f4e	0.11337148
225	0xbb2e83a8	-0.0026628766
226	0xbb97d95f	-0.004634067
227	0xbca19dc6	-0.019728553
228	0xbbe42e85	-0.0069635534
229	0xbc5f3734	-0.013624001
230	0x3c7884f2	0.015168415
231	0x3dc2afb7	0.09506171
232	0xbb4beaf7	-0.0031115392
233	0xbc30f92f	-0.0108015975
234	0xbd124855	-0.035713512
235	0xbd264721	-0.040595178
236	0x3b840a16	0.0040295226
237	0xbbc35f75	-0.005962307
238	0x3ce0a350	0.027421623
239	0xbc1b7d4e	-0.009490324
240	0xbcacfed9	-0.021117615
241	0x3d979087	0.07400613
242	0xbbab386f	-0.0052252333
243	0xbd002999	-0.03128967
244	0x3c102cc8	0.008799739
245	0xbcbda731	-0.023151012
246	0xbba78b31	-0.0051130285
247	0x3dbcc293	0.092167996
248	0xbd31fa1e	-0.04345142
249	0xbbc14e5b	-0.0058992333
250	0x00000000	0.0
251	0xbc5d1582	-0.013493897
252	0x3d289ebf	0.041167017
253	0xbbbfcdd8	-0.005853396
254	0xbd957ffe	-0.07299803
255	0xbbd8bd68	-0.006614376
