load/questionable-rnn-bg-1/critic_layer_2_weights.npy (npy, 4128 bytes, 1 tensors)

array f4 [1000, 1]
0	0xbdbba127	-0.09161597
1	0x3d491ce2	0.04909981
2	0xbdd34b29	-0.1031707
3	0x3da9ccec	0.08291039
4	0xbd8114a1	-0.06302763
5	0xbde51bcb	-0.11186942
6	0x3cf4b591	0.029871734
7	0xbe35cd81	-0.17754175
8	0xbc03b953	-0.00803979
9	0xbd79a6ed	-0.06095021
10	0x3b2ee4a2	0.0026686569
11	0xbe872041	-0.26391795
12	0xbdcbd106	-0.099519774
13	0xbd9e13a0	-0.07718587
14	0xbc9a574d	-0.018840456
15	0xbe21d72a	-0.15804735
16	0x3cff2086	0.031143438
17	0xbe407aac	-0.18796796
18	0xbd9f92b7	-0.077916555
19	0x3d55f9c6	0.052240156
20	0x3c2f8128	0.010711946
21	0xbe6dd7b1	-0.23226811
22	0xbe3a0c3f	-0.18168734
23	0xbda1fb89	-0.07909305
24	0x3c318394	0.010834593
25	0x3cf1ff2b	0.029540619
26	0xbd058a5e	-0.03260266
27	0x3d80385b	0.06260749
28	0xbde4b167	-0.11166649
29	0x3e0e0d0a	0.13872162
30	0xbc28e1b2	-0.010307716
31	0xbe46e4a7	-0.19423161
32	0x3c4b64de	0.012414185
33	0x3dbf7f24	0.09350422
34	0x3d41f4ca	0.04735259
35	0xbe022f3b	-0.1271333
36	0x3d3f22c1	0.046664003
37	0xbe09337a	-0.13398543
38	0xbd95d8aa	-0.07316716
39	0xbdb44c05	-0.08803562
40	0xbe120a81	-0.1426182
41	0xbdd746c9	-0.10511548
42	0xbbe4b0a7	-0.0069790664
43	0xbd58e28f	-0.052950438
44	0xbe312d91	-0.17302538
45	0xbe0db39e	-0.1383805
46	0xbe30508c	-0.17218226
47	0x3e262ca8	0.16227973
48	0xbd6b2173	-0.057404947
49	0x3d43ee45	0.047834653
50	0xbdfc1545	-0.12308744
51	0xbd7ce7ad	-0.06174438
52	0xbe804043	-0.25049028
53	0xbe2f0ab7	-0.17093931
54	0xbd8f3ef1	-0.06994427
55	0xbe255720	-0.16146517
56	0xbe2048c2	-0.15652755
57	0xbe1b6b4f	-0.15177654
58	0xbc461359	-0.012089574
59	0xbd84835c	-0.06470367
60	0xbdd53702	-0.104108825
61	0xbe053b21	-0.13010837
62	0xbd739c91	-0.059475485
63	0xbe36d69e	-0.17855307
64	0x3c3efd42	0.011657061
65	0xbb597361	-0.0033180343
66	0xbd0860be	-0.033295386
67	0x3dfb07c7	0.12257343
68	0x3dd8ae1d	0.105800845
69	0xbc00cf14	-0.007861871
70	0xbe2387f9	-0.15969838
71	0xbd7b55f9	-0.061361287
72	0x3c11a7d4	0.008890111
73	0xbe2d09f4	-0.16898328
74	0xbd5a0313	-0.053225588
75	0x3c1a0a0b	0.0094018085
76	0x3dce9026	0.10086088
77	0xbd1d4fbb	-0.038406115
78	0xbd8b58a8	-0.06804019
79	0xbdeafcec	-0.11474022
80	0xbe3989a0	-0.18118906
81	0x3e1bf3b9	0.15229692
82	0xb91ce3f4	-0.00014962238
83	0xbd5df637	-0.054189887
84	0x3d84a774	0.06477252
85	0xbeae165a	-0.34001428
86	0xbd9f72e6	-0.07785587
87	0x3d44de89	0.04806379
88	0xbd88b0e4	-0.06674364
89	0x3d8ee873	0.0697793
90	0xbdb995cf	-0.09061777
91	0x3b0e0a95	0.0021673788
92	0xbe73f987	-0.23825656
93	0xbe54e828	-0.20791686
94	0xbd015239	-0.031572554
95	0x3da69867	0.08134537
96	0xbe68bf1f	-0.22729157
97	0xbe33d987	-0.17563449
98	0x3e2b5650	0.16732144
99	0xbe038786	-0.12844667
100	0xbd8d4254	-0.06897417
101	0x3da3b022	0.07992579
102	0x3d55e68a	0.052221812
103	0x3db5a6e8	0.088697255
104	0xbe90b27f	-0.28261182
105	0x3d8f5fb4	0.07000676
106	0x3d361f1e	0.04446327
107	0xbe70c939	-0.2351426
108	0x3d767ef7	0.060179677
109	0xbca48502	-0.020082954
110	0xbe36e178	-0.17859447
111	0x3db5b701	0.08872796
112	0x3b1cc1d7	0.0023919248
113	0x3a86b67a	0.0010277771
114	0xbd01719f	-0.0316025
115	0xbd85e74a	-0.065382555
116	0xbe6afd19	-0.22948112
117	0xbdf1d976	-0.118090555
118	0x398e2e25	0.0002711873
119	0xbdae1f6a	-0.085020855
120	0xbd82638f	-0.063666455
121	0x3c0b8ac0	0.008516967
122	0xbe1444f9	-0.14479436
123	0xbe02aa39	-0.12760247
124	0xbced35d7	-0.028956337
125	0xbe442b38	-0.19157112
126	0x3d8be9d6	0.0683171
127	0x3dc71f61	0.09722782
128	0xbe505516	-0.20344958
129	0xbe180a4c	-0.14847678
130	0xbe9d50c6	-0.30725688
131	0x3d95912f	0.07303082
132	0xbe97b527	-0.29630396
133	0xbe2320db	-0.15930502
134	0x3da87255	0.08224932
135	0xbe6c6ec5	-0.2308913
136	0xbac5b31b	-0.0015083285
137	0xbd4902f1	-0.04907507
138	0xbe4993be	-0.19685265
139	0x3d21734f	0.039416607
140	0x3b22f565	0.0024865505
141	0xbd12604b	-0.035736363
142	0x3c64f286	0.013973838
143	0x3dc9cd79	0.09853644
144	0x3e072ac3	0.13199906
145	0x3d2793cc	0.040912434
146	0xbea1f055	-0.3162867
147	0x3dd4677a	0.10371299
148	0x3daeeda9	0.08541424
149	0xbd8a3f87	-0.06750398
150	0xbda9e2fe	-0.082952484
151	0x3d8ecbe9	0.069724865
152	0xbdf29431	-0.118446715
153	0xbc72a0d4	-0.014808852
154	0x3bec104c	0.007204091
155	0xbe44e306	-0.19227228
156	0xbd6c76e4	-0.05773057
157	0xbc68a673	-0.014199841
158	0xbe6efe1e	-0.23339126
159	0xbe0194ed	-0.12654467
160	0x3e39006f	0.18066572
161	0xbe43396c	-0.19064873
162	0xbe99f09d	-0.30066386
163	0x3d062e75	0.03275915
164	0xbd9a885d	-0.075455405
165	0xbea83dd9	-0.32859686
166	0xbe79af13	-0.24383192
167	0xbe220710	-0.15823007
168	0xbe72a412	-0.236954
169	0xbcecfec2	-0.028930072
170	0xbd730732	-0.059333034
171	0x3dc743e9	0.0972975
172	0x3de1e993	0.11030879
173	0xbd72f202	-0.059312828
174	0xbdcb2ad6	-0.0992028
175	0x3d05475d	0.03253876
176	0xbd12838a	-0.035769977
177	0xbdeb460c	-0.1148797
178	0x3d7a6249	0.06112889
179	0xbe177abe	-0.14792916
180	0x3d98f17a	0.07467933
181	0x3db06e00	0.08614731
182	0xbe290c7a	-0.16508666
183	0xbdfe0917	-0.124040775
184	0x3d1dab2e	0.038493328
185	0xbdb1f48b	-0.08689221
186	0xbdefc722	-0.117079034
187	0xbdafc792	-0.08582987
188	0xbe39f7ad	-0.18160887
189	0xbd9d4493	-0.07679095
190	0x3d95a6ee	0.0730723
191	0xbda2e8e5	-0.07954577
192	0xbdfeb751	-0.124373086
193	0xbdf5417c	-0.11975381
194	0xbd94b818	-0.072616756
195	0x3de98558	0.114023864
196	0xbdbfb948	-0.093615115
197	0xbe928344	-0.28615773
198	0xbe04ecc7	-0.12980948
199	0x3dc1c260	0.09460902
200	0x3d2e196c	0.042504713
201	0xbd131df8	-0.035917252
202	0xbe209fa0	-0.15685892
203	0xbd6a823e	-0.057253115
204	0xbe3a7633	-0.18209152
205	0xbde3461e	-0.11097358
206	0xbe0ccb43	-0.13749413
207	0x3ca147ed	0.019687617
208	0xbdc31248	-0.09524971
209	0xbdddce83	-0.108304046
210	0x3d7337c9	0.059379373
211	0x3cd803c2	0.02636898
212	0x3e2daf6a	0.16961446
213	0xbd840338	-0.064459264
214	0xbd18b869	-0.037285242
215	0xbd39229f	-0.045199033
216	0x3cc037d7	0.023464127
217	0xbe1f4a02	-0.15555575
218	0xbe2b7a0a	-0.16745773
219	0x3d1bf0b9	0.038071368
220	0x3dcca538	0.099924505
221	0x3b4fbce1	0.0031698274
222	0xbdb39423	-0.08768489
223	0x3b87da7e	0.0041459193
224	0xbe08bb23	-0.13352637
225	0xbc1acaef	-0.009447797
226	0xbda16a25	-0.078815736
227	0xbe292b29	-0.1652037
228	0xbd679994	-0.056542948
229	0xbe2a5aee	-0.1663625
230	0xbdd88ac7	-0.10573345
231	0x3e0770f5	0.13226683
232	0x3e10e749	0.14150728
233	0xbea00aa1	-0.3125811
234	0x3d8cb398	0.06870192
235	0xbd07aa0e	-0.03312116
236	0x3d27dc05	0.04098131
237	0x3d8a9998	0.06767577
238	0xbd53b8e7	-0.05169001
239	0x3dbb32de	0.091405615
240	0xbded7bbd	-0.11595867
241	0x3c6f2178	0.014595382
242	0x3d85550b	0.06510361
243	0xbd3b6314	-0.045748785
244	0xbd5b2238	-0.05349943
245	0xbe9918c2	-0.299017
246	0x3c2146fc	0.009843584
247	0x3d57427a	0.05255363
248	0xbe27ec96	-0.16398844
249	0x3cc16398	0.02360706
250	0xbd9a2a00	-0.07527542
251	0xbe4f166b	-0.20223396
252	0xbe3df18e	-0.18549177
253	0x3d9afce3	0.075677656
254	0xbe0cb05d	-0.13739152
255	0xbcf9495c	-0.030430488
