load/solved-rnn-1/critic_layer_2_weights.npy (npy, 4128 bytes, 1 tensors)

array f4 [1000, 1]
00000000: 4ee1 d03e 7fbb 21be 25a7 8abd 017e cf3d
00000010: e331 e13d 316b 84be 8998 293e a8e4 1b3e
00000020: bd90 a3bd 8bbc 913b abc1 863e 37bc f7bd
00000030: 998b c43d d9d7 b4bd 3899 9dbb 320b bb3e
00000040: e9c4 d33e 6235 2fbe 43cf 2ebe 91c2 53be
00000050: d2d9 91bd 918b b1be 5898 f1bd 7ddb 88be
00000060: 71c4 7f3e 2c97 10be 574a 183e 7cc7 8f3c
00000070: cac3 2a3d 38fd af3d 7d71 9fbe 4956 c4bd
00000080: 6531 9e3e d49c b83d e51a 8538 6ca5 68be
00000090: 92a9 443e a31d 553e 9e22 b8bd 95fd 243e
000000a0: 295f 253e b510 a63d 2372 18bd 36a8 943d
000000b0: aa7b 4b3e 6a06 bfbd 383e 1a3e d95a 41bd
000000c0: 82ba 29b5 8aa1 823d 5d7e a73d 3caf 9f3d
000000d0: f98a e63b 58f5 a63d 6247 8a3e 21c2 dcbd
000000e0: 3ac2 e9bd f9d8 abbe 8639 e43d f0e0 7cbc
000000f0: 3501 8bbd a00d 93be 0ee4 343d 317f 84bd
00000100: 9659 d13d 7ff5 593d 886c 8b3e 5e1f bebd
00000110: 1825 c3bd cc74 0e3e 608a 343c 1ce3 ac3d
00000120: eb2e dbbd 9286 623d 3064 d4bd 720b 88be
00000130: 2381 15be 4c32 253c 378f b437 8763 4c3e
00000140: fae5 003e 914a 2f3d d4b9 a83d 426a 7c3e
00000150: 8192 e9ba 3bfa f6bd a43d 3b3e e218 b4bd
00000160: dff8 9cbc 3d57 2b3e 0cbc 953d 46b8 78be
00000170: f749 633e f183 8fbc 268e 363e ee7c c23d
00000180: d73a 1cbb 744a 47be dec8 5d3e a629 2abe
00000190: cae3 2ebe 461b 553e af80 453e 6d85 6f3d
000001a0: 4339 4c3e 346c 8abc 59d1 573d 8264 823e
000001b0: 7355 ffbd 5628 7fbb c51d d1bd facd 3e3e
000001c0: 9955 cd3d 172b d73e acbc b4bd e184 babd
000001d0: b317 913d 124b 053d 3f79 acbd c589 5bbe
000001e0: 3391 8cbd b5f8 a53d 7bb0 683d cb0c dc3d
000001f0: 2459 c73e d063 0b3e eef8 e23d ed57 e4bd
00000200: 019b 85be 0a7f a7bb 1948 a0be ef30 6cbe
00000210: c02a 7abd c5cf d2bd e5f2 6ebd 3bfe 8c3d
00000220: 5684 9abd e21b 8c3d 0f3d 313e 94a0 153e
00000230: 4b79 1abe d707 95be 0d6e c53d ea1b ee3b
00000240: 9a3d 123e 29d5 a6be 52ac b4bd 2ebc adbd
00000250: 4ef3 17bd b242 943d 03b5 c43d ac28 a1bd
00000260: 0468 9e3d c968 1cba 2d12 9c3e 80dc 563d
00000270: faaa 223e cbd4 e03d 8d5a c83d c5c3 a6bd
00000280: 2f4a 8d3e 4c17 58be 47ae 24be 901e 4dbd
00000290: d946 a63d d6d1 a73d be73 c03d 54fc a53e
000002a0: 8688 1dbe 4750 5e3d 5187 893d e058 e43b
000002b0: 66e5 3e3d 560e 85be 4127 823d 55f1 dfbd
000002c0: d7d2 cdbd 9d18 063e 8498 39be b6cc c2bd
000002d0: 5d93 083d fdbf 95bd eba6 49be c194 e7bd
000002e0: e182 013b 7115 c63d 58a4 98bd a744 7fbe
000002f0: 760b 35bd e74e b43e a278 b4bb 08c0 d33b
00000300: 753d dabd 631f a2b7 20f1 353e dfc7 d13c
00000310: 76fa 58bb 641c 873e 3955 fc3e c552 033e
00000320: 46ed 503d 30f8 97bd dee0 f0bd 8185 7f3d
00000330: eed6 c1bd 9452 1f3d a617 1f3e 8efe bbbb
00000340: c230 df3c d7de 893e bedf a43d e066 f63d
00000350: b5d2 863e e130 083e 9104 80be 4b20 0b3d
00000360: 34fd d2bd 587c 813d bce8 943e 8c92 aebe
00000370: a4e9 d43d bf7d 4fb9 ccb2 163e d696 b73e
00000380: 3732 f2bd 8ce9 62be 4fa6 4dbe 1718 b43e
00000390: 8574 363e 1c28 ba3d 1368 2dbd 3960 103b
000003a0: 9ac7 17be ea65 273e 9a70 f33d 2736 973d
000003b0: abc8 903d e5bb 853d fddc 533e 9604 eeba
000003c0: a6d3 d13e 818b ccbd 6d1e 673e c59c be3d
000003d0: 9df5 b33d 3b54 89be 8e89 0c3e 4f21 243e
000003e0: 0b94 87bd e819 9abe f3a9 bebe f54e dbbb
000003f0: 2301 203e 3d63 28bd 80ea 713e 2f00 c53d
0.40796894 -0.1579418 -0.067701615 0.10131455 0.10995843 -0.2586303 0.16562094 0.15223944
-0.07986591 0.004447525 0.26319632 -0.12096446 0.09596939 -0.08830232 -0.004809525 0.3653198
0.41361168 -0.17110208 -0.17071252 -0.2067969 -0.07121624 -0.34676793 -0.117966354 -0.26729956
0.2497728 -0.14120167 0.14872108 0.017551176 0.041690625 0.085932195 -0.31141272 -0.0958677
0.3089706 0.090142876 6.346944e-05 -0.22719353 0.19205311 0.20812087 -0.08990978 0.16112359
0.16149582 0.08108655 -0.037218224 0.07258646 0.19871393 -0.09327395 0.15062797 -0.04720578
-6.322881e-07 0.063784674 0.08178399 0.07797095 0.00703561 0.08152264 0.27007586 -0.10779215
-0.11413999 -0.33563974 0.11143784 -0.015434489 -0.067873396 -0.28721333 0.044162802 -0.06469572
0.10222165 0.05321264 0.2723124 -0.092833266 -0.095285594 0.13911742 0.011019319 0.08441755
-0.10702308 0.055304118 -0.10370672 -0.26571232 -0.14600043 0.0100827925 2.1524362e-05 0.19959842
0.12587729 0.04279572 0.08238569 0.24649909 -0.0017820151 -0.120594464 0.18285233 -0.087938085
-0.01916164 0.16732498 0.07311258 -0.24289045 0.22196184 -0.01751897 0.17827663 0.09496485
-0.0023838782 -0.19461995 0.21658656 -0.1661745 -0.17079082 0.20811185 0.1928737 0.058476854
0.19943719 -0.016897298 0.052689884 0.25467306 -0.1246747 -0.0038933954 -0.10210756 0.18633261
0.10026092 0.42025062 -0.08825049 -0.09107376 0.070845984 0.032542296 -0.08421563 -0.21439274
-0.06863632 0.08104078 0.05680893 0.107446276 0.38935196 0.13612294 0.11082636 -0.11149583
-0.2609482 -0.00511158 -0.31305006 -0.23065542 -0.061075926 -0.10293535 -0.05833711 0.06884428
-0.07544772 0.06841256 0.17308448 0.14612037 -0.15085332 -0.29107544 0.09640131 0.007266511
0.14281312 -0.32584503 -0.0882193 -0.08483158 -0.037097268 0.072392836 0.09604838 -0.07869086
0.07734683 -0.0005966542 0.30482617 0.05245638 0.15885535 0.10978087 0.09782896 -0.08142809
0.2759566 -0.21102637 -0.16082107 -0.050077975 0.08118982 0.0819432 0.09397076 0.32419074
-0.15384111 0.054275777 0.06715263 0.0069686025 0.04660549 -0.259875 0.06355143 -0.10934702
-0.1004998 0.13095327 -0.18124586 -0.09511702 0.03334366 -0.073120095 -0.1969258 -0.113076694
0.0019761848 0.096720584 -0.07453221 -0.24928533 -0.044200383 0.35216448 -0.0055075446 0.006462101
-0.10656253 -1.932652e-05 0.17767763 0.025608001 -0.003310827 0.26388848 0.4928377 0.12824543
0.05100753 -0.07420385 -0.1176164 0.06238318 -0.09464823 0.038897112 0.15536365 -0.0057371324
0.02724493 0.26927826 0.08050488 0.120313406 0.26332632 0.13299896 -0.25003484 0.033966344
-0.10302201 0.06322545 0.29083812 -0.3409618 0.10396126 -0.00019787902 0.14716643 0.35857266
-0.11825984 -0.22159404 -0.20082973 0.3517463 0.17817886 0.090896815 -0.04233558 0.002203001
-0.14822236 0.16347471 0.118867114 0.073833756 0.070695244 0.06529979 0.20689769 -0.0018159326
0.40981787 -0.09987546 0.225702 0.09307245 0.087870814 -0.26822075 0.13724348 0.16028331
-0.06620034 -0.3009789 -0.37239036 -0.006692762 0.15625434 -0.041110266 0.23624611 0.09619176
