load/solved-rnn-1/critic_layer_batch_norm_a_1.npy (npy, 4128 bytes, 1 tensors)

array f4 [1000]
0.2601549 0.0037074485 0.0016167914 -0.041265916 -0.04551499 0.0049670106 0.24839225 0.2876743
0.003941546 0.20848985 0.2953704 -0.005302814 -0.0018624837 0.052525423 0.05293269 -0.21575542
0.087903075 0.2668248 0.11646465 0.19870804 0.09302825 0.2758359 -0.0007112615 0.21851225
0.32679036 -0.10956478 0.026704842 0.16860977 0.23362537 0.3804372 -0.0063148956 -0.00048187724
-0.0013414575 -0.27447268 0.24095489 0.23853736 -0.03068608 0.25213948 -0.008141622 0.23924693
0.30908656 0.0012258666 0.015877692 0.2770047 -0.024298182 0.012720967 -0.0013189773 -0.14162198
0.04407471 0.22839262 0.27038977 0.13758117 0.00073884876 0.061439544 -0.0018579368 0.18744917
0.095197424 0.3121594 0.17980304 0.08651507 0.19852145 -0.253262 0.00027495786 -0.14244077
-0.004314943 0.031630944 -0.0034891353 -0.08660449 0.25250447 -0.13326156 0.21826205 0.20648947
0.20827797 -0.0072127753 -0.0025739935 0.0012017627 0.28487194 0.07579149 0.007439751 0.31105214
0.30618095 0.063817285 0.28115472 0.15855302 0.28327733 0.22356349 0.08744439 0.2540924
-0.0006137507 -0.0052631143 0.0042686136 0.341062 0.29426143 0.23109873 0.052712273 0.12025024
-0.28685242 0.05590464 0.013249757 0.30066952 0.06759816 0.08272481 -0.0014717537 -0.20224242
0.0022533303 0.30795696 0.0013328531 0.005617616 0.009289757 0.28173086 0.012953382 0.060114644
0.0011463854 0.07745125 0.005513128 -0.01694307 0.0094863605 0.31613985 -0.005423398 0.13974379
-0.004182415 0.0050899335 0.3404229 0.2845108 0.2658095 0.35689119 0.24068671 0.19441527
0.2705096 -0.00097137806 0.0002526149 0.186132 0.011222379 0.24692187 0.26039943 0.23718944
0.037191123 0.0019171706 0.054801673 -0.002174912 -0.0032482883 0.06462205 -0.0132696135 0.034308985
-0.007212798 -0.25710016 0.30734536 0.025057543 0.10455221 0.19831035 0.32585785 -0.08030019
0.009302292 -0.21773744 0.0015338474 0.013426241 -0.0542437 0.2558233 -0.010037445 0.31897536
0.18274634 0.23844635 0.020564297 0.26695266 0.2672715 -0.0393631 0.032533895 -0.009816612
0.31550905 0.33266786 0.08247979 0.014183027 0.32744753 0.26698932 0.1181489 0.06854197
0.20785928 0.006246019 0.28934613 0.106475204 0.21664934 0.011894315 0.116916016 0.2965864
-0.12777598 -0.00093923096 0.0049015777 0.2635873 0.0059905443 0.12134293 0.0021806895 0.31759053
0.008355176 0.037897255 0.00699557 -0.0050653815 -0.008843023 -0.0021685031 0.24924396 0.07041056
0.039268672 0.019509068 -0.062194135 0.0031857365 0.15896036 0.2419974 0.0046975766 0.06911789
0.23945567 0.24945574 0.01349652 -0.006769121 0.259184 0.0056342357 0.0005689665 0.15228277
-0.24935932 0.03780581 0.32619295 -0.0036263955 0.27132857 0.060001638 -0.22184058 0.18131697
0.00533082 0.351212 -0.004685992 0.007438596 -0.04866109 -0.0030293916 0.0089070555 -0.015574768
0.16157697 0.006622974 0.079897866 0.24564384 -0.0020058963 0.078970626 0.14206325 -0.0059185405
0.2573665 -0.008341463 -0.1922723 0.23151891 0.0068898764 0.2453285 0.0715029 -0.00052611873
0.0478478 0.27402613 -0.19732065 0.019477017 0.27697733 0.07903244 0.0012800554 0.22497076
00000000: 0633 853e aaf8 723b 84ea d33a 7306 29bd
00000010: ed6d 3abd 4ec2 a23b 8a5a 7e3e 0c4a 933e
00000020: 1628 813b 5d7e 553e ca3a 973e 3ac3 adbb
00000030: 951e f4ba e624 573d f3cf 583d fdee 5cbe
00000040: 8706 b43d 439d 883e 0585 ee3d 1f7a 4b3e
00000050: 9885 be3d 5d3a 8d3e f473 3aba adc1 5f3e
00000060: 1151 a73e 8063 e0bd 1dc4 da3c 0aa8 2c3e
00000070: 7d3b 6f3e aac8 c23e 2fed cebb 78a4 fcb9
00000080: d8d3 afba af87 8cbe e1bc 763e 2343 743e
00000090: 6061 fbbc 6d18 813e 7064 05bc 26fd 743e
000000a0: 9840 9e3e 42ad a03a ef11 823c 8fd3 8d3e
000000b0: fb0c c7bc 9a6b 503c 89e1 acba 5a05 11be
000000c0: af87 343d c1df 693e 8770 8a3e 14e2 0c3e
000000d0: 4daf 413a 08a8 7b3d 0486 f3ba adf2 3f3e
000000e0: def6 c23d 5bd3 9f3e 4a1e 383e d02e b13d
000000f0: 3549 4b3e 8fab 81be 3828 9039 fedb 11be
00000100: 5e64 8dbb 738f 013d faa9 64bb b25d b1bd
00000110: 4448 813e b875 08be 1680 5f3e fa71 533e
00000120: d246 553e 2559 ecbb 72b0 28bb 7784 9d3a
00000130: bcda 913e 9238 9b3d 28c9 f33b 3a42 9f3e
00000140: c0c3 9c3e a3b2 823d 83f3 8f3e b95b 223e
00000150: ba09 913e d4ed 643e 0b16 b33d 6618 823e
00000160: 1de4 20ba 3476 acbb badf 8b3b ae9f ae3e
00000170: 6fa9 963e 25a5 6c3e d3e8 573d c245 f63d
00000180: 52de 92be 44fc 643d 8215 593c 5bf1 993e
00000190: e770 8a3d a06b a93d dce7 c0ba a318 4fbe
000001a0: 9cac 133b 89ac 9d3e 21b3 ae3a fb13 b83b
000001b0: 1134 183c 073f 903e 6c3a 543c c63a 763d
000001c0: 5042 963a c39e 9e3d 78a7 b43b 31cc 8abc
000001d0: ae6c 1b3c 15dd a13e c3b6 b1bb ff18 0f3e
000001e0: a40c 89bb 75c9 a63b e94b ae3e 66ab 913e
000001f0: 2f18 883e 71ba b63e 9476 763e cc14 473e
00000200: 3c80 8a3e 14a4 7eba 6671 8439 6399 3e3e
00000210: 12de 373c 16d9 7c3e 1353 853e cae1 723e
00000220: b855 183d 9249 fb3a b877 603d f888 0ebb
00000230: 3ce1 54bb 9158 843d cb68 59bc 9487 0c3d
00000240: 5659 ecbb a2a2 83be 5f5c 9d3e 7a45 cd3c
00000250: 781f d63d de11 4b3e d7d6 a63e 6d74 a4bd
00000260: a468 183c 90f6 5ebe 610b c93a bdf9 5b3c
00000270: a42e 5ebd 46fb 823e 1974 24bc bd50 a33e
00000280: db21 3b3e 482b 743e 7576 a83c 05ae 883e
00000290: cfd7 883e 343b 21bd 4342 053d dbd5 20bc
000002a0: 678a a13e 7153 aa3e 2aeb a83d ed5f 683c
000002b0: 34a7 a73e d3b2 883e 0df8 f13d bb5f 8c3d
000002c0: 10d9 543e 68ab cc3b 2d25 943e ac0f da3d
000002d0: 53d9 5d3e 5fe0 423c aa71 ef3d 2cda 973e
000002e0: b5d7 02be b936 76ba 6a9d a03b eaf4 863e
000002f0: 544c c43b a482 f83d e6e9 0e3b 3a9b a23e
00000300: 26e4 083c 273a 1b3d 183b e53b 80fb a5bb
00000310: 54e2 10bc 721d 0ebb cf39 7f3e 6933 903d
00000320: 30d8 203d 7bd1 9f3c 47bf 7ebd cac7 503b
00000330: 81c6 223e 2bce 773e 21ee 993b ae8d 8d3d
00000340: de33 753e 5371 7f3e 8220 5d3c 81cf ddbb
00000350: c4b3 843e 659f b83b b226 153a 04f0 1b3e
00000360: 0d58 7fbe 44da 1a3d c302 a73e d2a8 6dbb
00000370: 94eb 8a3e 47c4 753d 2d2a 63be 28ab 393e
00000380: 29ae ae3b 0fd2 b33e f38c 99bb 77bf f33b
00000390: da50 47bd c288 46bb e6ee 113c 502d 7fbc
000003a0: 6f74 253e 8805 d93b 7ea1 a33d 0f8a 7b3e
000003b0: 5b75 03bb 5abb a13d 0779 113e 51f0 c1bb
000003c0: 8bc5 833e a2aa 08bc 08e3 44be 4b13 6d3e
000003d0: 79c4 e13b 6537 7b3e 1d70 923d 3beb 09ba
000003e0: 0efc 433d 274d 8c3e 6d0e 4abe 448e 9f3c
000003f0: f9cf 8d3e c3db a13d 88c7 a73a bc5e 663e
