load/solved-rnn-1/critic_layer_1_biases.npy (npy, 4128 bytes, 1 tensors)

array f4 [1000]
00000000: 8044 43bd 844c 04be fb37 88bd 7ee1 da3d
00000010: 106c 8c3d fa1a 85bb 29c6 3b3e 6974 19bd
00000020: 4e7d 6a3c fd3e 3cbd 60a7 2fbe a681 88bd
00000030: c579 d03d 7afd f6bc bb03 e9be ee36 22be
00000040: f287 19bd 4acd 0bbe af44 2c3d fce9 adbd
00000050: 8e1e d83c 54b5 74be bcf6 85bd 01d0 b2bc
00000060: 0137 7abe fffc a1bd e764 35be 8214 b7bd
00000070: 8c54 183d a228 ae3e 5ab1 d3bd 622a 493c
00000080: df91 75be 8b04 23be cbc3 cdbd a90a 1ebe
00000090: e03a 2fbe 83a1 0ebe 5eb2 2d3c 5a40 113e
000000a0: 42fd 0f3e 8177 54be 6029 9abe 64df 97be
000000b0: e57e 5cbe 2b54 3a3b 126d bf3e d68b a63c
000000c0: a6bb 79bd a58c 473e bd71 9fbd 2c1e 3b3e
000000d0: 7516 6a3d 41df 07be 3003 cbbc b2ab 63bd
000000e0: c573 45bd a05c 12be 49eb f93d bcc1 bcbe
000000f0: 537e e8bc b94a 6abd d5c9 3cbd b4c2 a8bd
00000100: f998 47be 1849 e93d bf0b 67be b778 933c
00000110: 7d33 9c3c e89b 04be c1fd 40be 3761 233e
00000120: 56fe 5bbd 591a 9dbe 38ee 4e3d feb1 203c
00000130: 54bf 06bd d12a cabe d869 34bd c37e 64be
00000140: c24c 39be f7ab 3bbe b17e 2cbe cbdc 4ebe
00000150: f250 dabe 549d d9bc d37b 34be f008 153c
00000160: 5f00 aabe ae60 79be 51ff 483e ea5f e4bd
00000170: 3746 a3bd ca6f 83bd 22ee b03e 8753 103e
00000180: a2ab d7be 5ff8 1cbe ea5f 4abe e61b c1bd
00000190: ac4f 0abe d7e6 f2bd 6f28 f9bd bab9 acbe
000001a0: e2a2 56be 750d ebbe 92b3 58be 5fb6 54be
000001b0: 8c18 5ebe 720f d5be fe8d abbe 3d2e eb3e
000001c0: d65a 4d3e 55e2 d2bd a520 83ba fcf9 a63c
000001d0: b5cb 31be c7d9 60be 3af3 fdbc f4e5 23be
000001e0: aada f93c 3dc4 ddbe c33a 143e c042 373e
000001f0: 3bf7 37be 6e57 513e bbb9 5d3e 16e0 94bd
00000200: d9a6 c3bd 7547 72be 47c1 54bd 9483 e93c
00000210: 0b55 6cbd 9789 6cbd 2b75 183c 8779 10be
00000220: b466 39bc c3ae fbbc 5fb0 4ebe 42cf 84bc
00000230: 2e33 863d 19f1 56bd 3a4a 143e 9844 51be
00000240: e28d 05bd 1c00 98bd 3fd0 47bb 5c84 413c
00000250: 3ee0 29be 108a e6bc dcb4 08be bad9 abbe
00000260: a518 713d 8a28 21be db9d 5bbe 900a 803e
00000270: d154 853e 6682 3dbc 0a4d ea3c aa80 48bd
00000280: 4a53 12be 49ca 3fbd 18bd 92bd 4141 fbbc
00000290: 6aa7 cf3e 466a fabd 777c bbba 85af 46be
000002a0: 0ae3 243d 7777 113f 04af e63d 254e f63e
000002b0: 4b26 5ebe a2e0 46be eb6b 1a3d 8d7f e8bc
000002c0: 0efd 62bd 18d0 5bbe 856a fd3c 856e c43c
000002d0: 5b36 88bd 1043 1cbd fad6 78bd d6da 66be
000002e0: dea0 b2bd 1add 88bd 0242 ffbb 60a3 853c
000002f0: c398 ccbe 7319 96bc 3170 a7be 0af7 13be
00000300: 0281 0a3d e8fc 4ebe 8859 58be e6b2 1fbc
00000310: e8d6 e3be c8d4 4ebe 95eb 18be 245c 403e
00000320: f672 f7bd cda2 adbc 0fc3 c2bd 3af4 c03e
00000330: ac1c 51bc afc5 b1be 1e26 b63e b475 c8be
00000340: 1422 cabc 29ea 9bbe c587 c5be 9a97 77be
00000350: ade2 3bbe 403e dd3d 5d54 3dbe 229d 0e3f
00000360: caba 843c 9747 00be 6586 0bbc eb9b 36be
00000370: 31fc 583e 928a c3bd b82c b9bd 528c 56be
00000380: 670f f13c 9961 c5bd 6dec 433d 255a 32be
00000390: d2af 12be 516d 65bd 1595 49bd a661 d6be
000003a0: 6502 2f3d 093a 053f 1955 663e ec81 0f3f
000003b0: d6ae 0d3e feb0 a7bd 6cf7 e1ba 9925 52be
000003c0: 534b 07be 85bc f4be 5110 67be fa86 3b3e
000003d0: 5988 023f 0b02 06be b4fc a0bc 99aa a63e
000003e0: 114e 8bbd ee4f d9bd ec47 39be 0338 cfbe
000003f0: 1b11 873e fc04 c8be 370e 4cbe 949e 333d
-0.04767275 -0.12919813 -0.066513024 0.106875405 0.06856549 -0.0040620537 0.18337311 -0.037464533
0.0143121015 -0.045958508 -0.17153692 -0.066653535 0.10179476 -0.030150164 -0.4551066 -0.15841267
-0.037483163 -0.1365253 0.04205769 -0.084918946 0.026381757 -0.23897296 -0.065412015 -0.0218277
-0.24435045 -0.07909583 -0.17714272 -0.089394584 0.037190005 0.34015375 -0.103365615 0.012278171
-0.23981427 -0.15919702 -0.1004711 -0.15433754 -0.17112303 -0.139288 0.010601608 0.14184704
0.14061454 -0.20748712 -0.30109692 -0.2966262 -0.21532781 0.0028431516 0.37387902 0.02033035
-0.06096997 0.19487245 -0.07785366 0.18273228 0.057150323 -0.13268758 -0.024781793 -0.055583663
-0.04820611 -0.14293146 0.1220308 -0.36866558 -0.028380549 -0.057200167 -0.04609092 -0.08240262
-0.19491948 0.11390895 -0.22563075 0.018001897 0.01906752 -0.12950099 -0.188468 0.15955053
-0.05370935 -0.30684164 0.05052015 0.009808062 -0.03289731 -0.3948579 -0.044046253 -0.22313981
-0.18095687 -0.18327318 -0.16845204 -0.20201413 -0.4263988 -0.026564278 -0.1762536 0.009096369
-0.33203408 -0.24353287 0.19628645 -0.11151107 -0.07972377 -0.064178064 0.3455668 0.14094363
-0.42123133 -0.15329121 -0.19763151 -0.09429149 -0.13506955 -0.118604355 -0.12165915 -0.33735448
-0.20960572 -0.45908704 -0.2116225 -0.20772694 -0.21689051 -0.41613346 -0.3350677 0.45933715
0.20054182 -0.10297076 -0.0010004236 0.020382874 -0.17362864 -0.21958075 -0.030999769 -0.16005689
0.030499775 -0.4331378 0.14475541 0.17896557 -0.17965405 0.20443508 0.21652882 -0.072693035
-0.09553308 -0.23660071 -0.051942136 0.028505124 -0.05769829 -0.057748403 0.009305279 -0.14108859
-0.01131599 -0.030722981 -0.20184468 -0.01621211 0.065527305 -0.052476022 0.1448144 -0.20436323
-0.032606013 -0.07421896 -0.0030489115 0.011811342 -0.16589448 -0.028142005 -0.13350242 -0.3356455
0.058861393 -0.1573812 -0.21446936 0.2500806 0.26041272 -0.011566734 0.028601188 -0.04895083
-0.14289585 -0.046823774 -0.07164973 -0.030670764 0.40557414 -0.12227301 -0.0014304061 -0.19402893
0.040255584 0.56822914 0.1126385 0.48106495 -0.21694295 -0.19421628 0.037700575 -0.028381133
-0.055417113 -0.214661 0.030934582 0.023978481 -0.066509925 -0.038149893 -0.060751893 -0.22544417
-0.08722089 -0.06682797 -0.007789851 0.016313255 -0.39960298 -0.018322682 -0.32702783 -0.14449707
0.033814438 -0.20213664 -0.21127903 -0.009747243 -0.44499898 -0.20198357 -0.14933617 0.18785149
-0.12082474 -0.021195794 -0.09509861 0.3768633 -0.012763184 -0.34721133 0.35575956 -0.391523
-0.024674453 -0.30452088 -0.38580146 -0.24178925 -0.18348189 0.10802889 -0.18489213 0.55708516
0.01620235 -0.1252731 -0.008515929 -0.17832915 0.21189953 -0.095479146 -0.090417325 -0.20951965
0.02942629 -0.09637756 0.047832895 -0.174172 -0.14324883 -0.056012455 -0.04921444 -0.41871375
0.042726893 0.5204168 0.224934 0.5605762 0.13836226 -0.081880555 -0.0017239875 -0.20522155
-0.13212328 -0.4780008 -0.22564818 0.18313208 0.509893 -0.13086717 -0.019651748 0.3255203
-0.06801999 -0.106109485 -0.18093842 -0.4047242 0.26380238 -0.39066303 -0.19927298 0.043852404
