load/solved-rnn-1/critic_layer_batch_norm_b_1.npy (npy, 4128 bytes, 1 tensors)

array f4 [1000]
000000 14 5f c2 3e 0e be ed bd b6 8f 42 be 5b 02 59 3e
       0.37963164 -0.11608516 -0.19000134 0.21192305
000010 de 14 1b 3e a2 57 58 be 80 df 40 3e 88 2a 56 3e
       0.15144679 -0.2112718 0.18835258 0.20914662
000020 f5 9a 3a be b0 ed 33 3e bf f8 bf 3e 99 e5 65 be
       -0.18223174 0.1757114 0.37494466 -0.22450866
000030 77 d8 05 3e 66 14 28 be 12 53 be 3c 25 60 49 3e
       0.13070856 -0.16414031 0.02323297 0.19665582
000040 59 c4 cc 3e 91 7b 27 be cb 8b 4b be de 84 71 be
       0.3999355 -0.1635573 -0.19877546 -0.23585841
000050 9d 3d 2a be d9 91 6e be 27 62 66 be a0 24 57 be
       -0.16625066 -0.23297824 -0.2249838 -0.21010065
000060 ba 3d bd 3e 31 cf ca bd 37 87 1b 3e bd 02 44 3e
       0.36961156 -0.099028 0.15188299 0.1914167
000070 ac 00 3f 3e 41 29 05 3e a5 d6 6f be b0 5a 32 be
       0.186526 0.13004018 -0.23421724 -0.17417407
000080 1d 26 9c 3e bd 58 35 3e 0b 90 46 b9 3b 89 58 be
       0.30497828 0.17709632 -0.00018936412 -0.211461
000090 9a 0f 79 3e de 51 2b 3e 0e 08 2e be 64 cc 49 3e
       0.24322358 0.16730449 -0.1699526 0.19706875
0000a0 b4 34 76 3e b1 99 00 3e 63 e1 16 bc 6d bc d9 3d
       0.24043542 0.12558629 -0.00920901 0.106316425
0000b0 a3 55 1a 3e a0 97 45 be 60 e8 71 3e 6e a9 06 be
       0.1507173 -0.19296122 0.236238 -0.1315057
0000c0 82 9e 2c b5 68 61 15 3e 66 43 5b 3e 85 2d 0a 3e
       -6.430565e-07 0.14587939 0.21412429 0.13493927
0000d0 70 5b 25 3e 76 27 5b 3e 1c 99 bd 3e 99 aa 5e be
       0.16148162 0.21401772 0.37030876 -0.21744765
0000e0 1d 78 61 be b3 bf 97 be f1 e8 41 3e fa 9e 9e 3c
       -0.22018476 -0.29638442 0.18936516 0.019362915
0000f0 05 07 31 be 7f da 85 be aa 11 1a 3e 95 25 23 be
       -0.17287834 -0.26143262 0.15045801 -0.15932305
000100 02 bd 4c 3e 79 c3 24 3e 59 70 fd 3d 75 41 2c be
       0.19993976 0.16090192 0.12374944 -0.16821845
000110 18 68 56 be 12 49 44 3e 14 a0 3c 3c bc c4 4d 3e
       -0.20938146 0.19168499 0.011512775 0.2009458
000120 c1 c4 57 be 7f cb 94 3d 20 e6 23 be 79 6e 69 be
       -0.2107115 0.07265376 -0.16005754 -0.22796048
000130 3c ac 59 be 84 74 3c 3d b2 01 b9 37 09 e0 54 3e
       -0.21257108 0.046009555 2.2054508e-05 0.20788588
000140 2b 93 01 3e be 84 37 3e 49 92 ac 3d 7e a5 95 3e
       0.12653796 0.17921731 0.08426339 0.29227823
000150 7c 4e 23 3b 3b 08 30 be c2 a5 37 3e 62 39 35 be
       0.0024918607 -0.1719064 0.17934325 -0.17697671
000160 af 9a 72 3c e3 c4 90 3e 13 82 33 3e 62 44 78 be
       0.014807387 0.28275213 0.17530088 -0.24244836
000170 30 c7 80 3e 53 ff 8f bc 80 13 3d 3e 32 dc 36 3e
       0.25151968 -0.017577803 0.1846447 0.17857435
000180 97 75 97 3b 1b 47 66 be 32 8f a8 3e 03 37 6a be
       0.004622172 -0.22488062 0.3292175 -0.22872548
000190 2d ad 2a be 7e bf 58 3e dd c2 80 3e ec a4 c9 3d
       -0.16667624 0.21166798 0.2514867 0.098459095
0001a0 13 b3 40 3e 98 f2 49 3c 88 c3 ac 3d bf 5c 53 3e
       0.18818311 0.012325905 0.08435732 0.20640849
0001b0 8e dc 2d be 62 67 9a 3c f2 65 f2 bd d7 2c 3e 3e
       -0.16978666 0.018848125 -0.11835851 0.18571793
0001c0 b4 dc 4d 3e 89 8c dc 3e 92 bb 3d be 91 d3 4e be
       0.20103723 0.4307597 -0.18528584 -0.20197894
0001d0 38 04 53 3e 99 45 49 3e 8b 98 3b be 90 65 75 be
       0.20607078 0.19655456 -0.1831991 -0.23964524
0001e0 89 d3 25 be b6 36 0e 3e 42 11 28 3e 6b 16 22 3e
       -0.16193976 0.13888058 0.16412833 0.15828864
0001f0 0c ce c1 3e 51 0c 44 3e a9 28 4e 3e fb d3 64 be
       0.37852514 0.19145323 0.20132698 -0.22346489
000200 ef d1 5c be 5a c6 f7 bc 97 fa 58 be 77 4d 57 be
       -0.21564458 -0.030245949 -0.21189342 -0.21025644
000210 a9 d0 3d be 14 52 61 be 81 51 1b be 0b 9f 4b 3e
       -0.18536629 -0.22003967 -0.1516781 0.19884889
000220 fd 92 2b be 73 48 2f 3e d3 8e 28 3e 70 dc 01 3e
       -0.1675529 0.17117481 0.16460733 0.12681746
000230 37 a8 4b be bd d2 68 be 26 aa 15 3e ce ef ff 3b
       -0.19888388 -0.2273664 0.14615688 0.0078105694
000240 da 00 7b 3e 5e 45 76 be bf 63 46 be 4c e6 3e be
       0.24512044 -0.24049899 -0.19373988 -0.18642539
000250 37 6b b6 bd 7f 95 47 3e e7 87 5f 3e 81 b9 37 bd
       -0.08907168 0.19490622 0.21829186 -0.044854645
000260 81 97 fc 3d 21 f3 60 3a 9c f8 5d 3e 1b 69 24 3e
       0.123335846 0.0008581151 0.21676868 0.1605572
000270 df dc 43 3e 01 00 02 3e ab ae 52 3e e1 49 40 be
       0.19127224 0.12695314 0.20574443 -0.18778183
000280 03 82 ab 3e d3 db 64 be b6 a0 69 be c3 c3 0e be
       0.3349763 -0.22349481 -0.22815213 -0.13941865
000290 49 40 24 3e c0 3a 56 3e e3 c4 13 3e 68 85 b9 3e
       0.16040148 0.20920849 0.14430575 0.36234593
0002a0 d8 e2 45 be 2b 82 6c 3d 2e 26 de 3d 81 91 65 3d
       -0.19324815 0.057741325 0.10847126 0.056046966
0002b0 6e 26 44 3e 0c 46 56 be d8 49 4f 3e fc 40 36 be
       0.19155285 -0.20925158 0.20243013 -0.17798227
0002c0 45 c7 0c be b8 93 4f 3e d8 a8 60 be 2f a6 44 be
       -0.1374789 0.20271194 -0.21939409 -0.19204019
0002d0 5a cc 34 3e d6 25 30 be a4 7c 6d be f8 b6 12 be
       0.17656079 -0.17201933 -0.23192078 -0.1432761
0002e0 ef 78 0c 3e 85 de 56 3e 0f cb 3a be 12 f8 66 be
       0.13718008 0.20983322 -0.18241523 -0.22555569
0002f0 d7 f7 af 3c 38 3d b7 3e 7a bd 41 3c 3f f9 c9 3b
       0.021480484 0.35788894 0.01182496 0.0061637457
000300 48 48 46 be bb 84 a8 b7 10 88 2b 3e 69 cd 34 3e
       -0.1936351 -2.0088968e-05 0.16751122 0.17656483
000310 6d 9a ae bb 5b dc 9c 3e 8b 82 df 3e 1d bd 4c 3e
       -0.0053284676 0.30636868 0.43654284 0.19994016
000320 6e 8a 30 3e d6 3a 33 be 98 d2 f1 bd 18 46 04 3e
       0.17240307 -0.17502913 -0.11807746 0.12917364
000330 3e b9 30 be 4a 3a d0 3d 1d 6b 7a 3e 6f c4 2b 3c
       -0.17258164 0.10167368 0.24454923 0.010483845
000340 74 a8 0a 3e e3 18 c1 3e 9a cb 16 3e a3 69 44 3e
       0.13540822 0.377143 0.14726105 0.19180922
000350 67 06 94 3e b6 16 6e 3e c0 a5 5b be f5 ac 22 3d
       0.28911135 0.23250851 -0.21449947 0.039715726
000360 86 de 38 be 66 ad 5e 3e f3 89 b5 3e 66 42 61 be
       -0.18053636 0.21745834 0.3545681 -0.21997985
000370 26 f1 49 3e 8c 5c 09 39 c5 9d 46 3e a2 45 98 3e
       0.19720897 0.00013099815 0.19396122 0.29740626
000380 0b 8c 48 be 60 7c 66 be 8e 19 62 be c4 1a c1 3e
       -0.19584672 -0.22508383 -0.22080061 0.37715733
000390 92 a7 a4 3e 1c 72 60 3e 06 9d 2c be 06 9d 8d bc
       0.32159096 0.2191853 -0.16856775 -0.017286789
0003a0 e3 1f 4f be 7b 82 35 3e 0e 60 4f 3e 5e e3 ea 3d
       -0.20227008 0.17725556 0.20251486 0.11469148
0003b0 32 9f 0e 3e 4a df 5f 3e 5c b5 55 3e f6 53 01 bb
       0.13927916 0.21862522 0.20869964 -0.0019733883
0003c0 b8 ed cb 3e 98 b5 1a bd e9 b5 35 3e b2 8f 1c 3e
       0.39829803 -0.037770838 0.17745174 0.1528919
0003d0 89 1d d7 3d 78 4f 63 be 8e 1b 47 3e b7 dc 52 3e
       0.1050368 -0.22198284 0.19444105 0.20592009
0003e0 65 1d 46 be 70 1e 7f be ca 8a 76 be bc d2 f9 3c
       -0.1934715 -0.24913955 -0.24076381 0.030495994
0003f0 88 6b 3d 3e 9d b8 92 3c ed b9 4f 3e 2f 6b 45 3e
       0.18498051 0.017910296 0.20285769 0.19279169
