load/solved-rnn-1/critic_layer_0_weights.npy (npy, 60128 bytes, 1 tensors)

array f4 [15, 1000]
0	0xbedc4388	-0.43020272
1	0x3d9704c9	0.073739596
2	0xbc9971a2	-0.018730942
3	0xbebaff26	-0.36522788
4	0x3fc3708b	1.526872
5	0x3faebaf3	1.3650802
6	0xbec763b8	-0.38943267
7	0x3e0e36ec	0.13888139
8	0x3bb7f7c6	0.0056142537
9	0xbdf72551	-0.120676644
10	0xbf096070	-0.53662777
11	0x3ca54594	0.020174779
12	0xbd13e1a9	-0.03610388
13	0x3e3e6b3e	0.18595597
14	0x3c69b897	0.014265201
15	0xbc17c057	-0.009262166
16	0x3d6af2de	0.057360522
17	0xbe9145cf	-0.28373572
18	0xbc65e881	-0.014032484
19	0xbebc799a	-0.36811525
20	0xbe8a3bbe	-0.26998705
21	0xbcb4753e	-0.022028562
22	0xbc0c72f0	-0.008572325
23	0xbf01f7d1	-0.5076876
24	0xbf1bd23f	-0.60867685
25	0xbd2c2e5e	-0.042036407
26	0x3ecf2430	0.40457296
27	0x3ca6d355	0.020364443
28	0xbbd15aa7	-0.0063889804
29	0xbdfab81e	-0.12242149
30	0xbd887c99	-0.0666439
31	0xbc91a7c6	-0.017780196
32	0xbd9290d7	-0.07156532
33	0x3b78c7c5	0.0037960869
34	0xbe969cf8	-0.29416633
35	0x3d7d3e06	0.06182673
36	0x3c09f92d	0.008421225
37	0x3e75c38d	0.24000378
38	0xbdf0f650	-0.117657304
39	0xbba7508a	-0.0051060366
40	0x3efd88bd	0.49518386
41	0xbdabda51	-0.0839125
42	0x3f676c8b	0.904
43	0x3db18109	0.0866719
44	0xbc922061	-0.017837705
45	0xbd8124db	-0.06305858
46	0x3d1b34f9	0.037892316
47	0x3d563628	0.05229774
48	0x3dd67f0f	0.10473453
49	0x3e489cf5	0.19591124
50	0x3d947cdc	0.072503775
51	0x3c913076	0.017723303
52	0xbbc4d163	-0.006006406
53	0xbd2d3110	-0.042283118
54	0xbc3ab757	-0.011396251
55	0x3edbd6db	0.4293736
56	0xbe35f761	-0.17770149
57	0x3f1033c9	0.5632902
58	0xbc2c8d10	-0.010531679
59	0x3db43873	0.08799829
60	0xbbf4e860	-0.0074739903
61	0xbc33584d	-0.0109463455
62	0xbc9bad57	-0.019003553
63	0xbcb733b2	-0.022363517
64	0xbdf1a706	-0.11799435
65	0x3ddf065d	0.108898856
66	0xbec49bfc	-0.38400257
67	0xbcd1d748	-0.02561535
68	0xbbfcf6a2	-0.0077198306
69	0xbbd3397b	-0.006446061
70	0xbd0f9ef2	-0.03506369
71	0x3c766343	0.015038314
72	0xbc056fe5	-0.0081443535
73	0xbe60d3ce	-0.21955797
74	0xbd4db648	-0.050222665
75	0x3df59514	0.11991325
76	0x3f15374a	0.5828749
77	0x3e9041f5	0.2817532
78	0xbdbbd83b	-0.09172102
79	0x3f0f1792	0.5589534
80	0x3de61b2c	0.112356514
81	0xbe73a9b1	-0.23795201
82	0xbe359514	-0.1773265
83	0x3dcb95c7	0.09940677
84	0x3e917fa2	0.2841769
85	0xbbc9217d	-0.0061380253
86	0x3bbc2a45	0.0057423436
87	0xbe9374b6	-0.2879998
88	0x3fe010f0	1.7505169
89	0xbd700a27	-0.058603432
90	0xbcaecb19	-0.021337079
91	0x3f011c72	0.5043403
92	0xbf035617	-0.5130324
93	0xbe93d35e	-0.28872198
94	0xbdcd285c	-0.100174636
95	0xbdf0d840	-0.117599964
96	0xbccb2fcd	-0.024803067
97	0x3d85a9ae	0.065265045
98	0xbd9c55f7	-0.07633584
99	0x3f1721f1	0.59036165
100	0xbe57c477	-0.21071039
101	0xbbdf32c3	-0.006811471
102	0x3de46229	0.11151535
103	0xbc8f5c96	-0.017500203
104	0x3e0cf268	0.13764346
105	0xbf095e27	-0.5365929
106	0xbc75f333	-0.0150115965
107	0xbc7e5b0d	-0.015524638
108	0xbe97d8dc	-0.29657638
109	0x3f01a389	0.5064016
110	0xbe394385	-0.18092163
111	0xbdd6020c	-0.10449609
112	0xbe4ee952	-0.20206192
113	0x3eb68257	0.35646316
114	0xbd108cd8	-0.03529057
115	0x3fc1a162	1.5127375
116	0xbd8e03a4	-0.06934288
117	0xbf128918	-0.5724044
118	0xbd35c57e	-0.044377796
119	0x3ddd6c49	0.108116694
120	0x3c0b6a6e	0.0085092615
121	0xbe1d3736	-0.15353093
122	0x3f2674a6	0.6502174
123	0xbf10bf50	-0.5654192
124	0xbc07afa0	-0.008281618
125	0xbf10ffc4	-0.5664027
126	0x3f14cbd4	0.5812352
127	0xbc12465f	-0.008927911
128	0xbec2db76	-0.3805806
129	0xbd203319	-0.03911123
130	0xbd32c676	-0.0436463
131	0xbc186b33	-0.009302902
132	0xbddc04d6	-0.1074311
133	0xbe12f05c	-0.14349502
134	0xbdfd755c	-0.123759
135	0xbe4c9f34	-0.19982606
136	0x3bde56ae	0.0067852354
137	0x3c558693	0.013032573
138	0xbd2bc8d1	-0.04193956
139	0x3c0702f9	0.008240455
140	0xbd063481	-0.032764915
141	0x3d87b942	0.06627132
142	0xbc728404	-0.014801983
143	0x3da86480	0.08222294
144	0x3d059d44	0.032620683
145	0xbba7c209	-0.0051195663
146	0x3f081275	0.53153163
147	0xbe1fb98b	-0.15598123
148	0xbdefe2c5	-0.11713175
149	0xbe07745f	-0.13227986
150	0xbf07f0b6	-0.5310167
151	0xbcf148a4	-0.029453583
152	0xbd11db44	-0.0356095
153	0xbc1829c9	-0.009287306
154	0xbd675583	-0.056478035
155	0xbce2d8a0	-0.027691185
156	0x3f956036	1.1669986
157	0xbf0c631c	-0.5483873
158	0xbd2630dd	-0.040573943
159	0xbef4e601	-0.4783173
160	0xbdb9bf06	-0.09069638
161	0xbbbcd743	-0.005762966
162	0x3eb7f032	0.35925442
163	0xbbf892b4	-0.0075858478
164	0xbeecc5c6	-0.4624464
165	0xbed5b54a	-0.41739875
166	0xbe7b64d8	-0.24550188
167	0x3e28e1ca	0.16492382
168	0xbf07199d	-0.5277346
169	0xbf1485ae	-0.5801648
170	0xbe125eb7	-0.14293943
171	0xbe9ce19e	-0.30640882
172	0xbed047a7	-0.40679666
173	0xbf085b84	-0.5326464
174	0xbdbc2441	-0.091866024
175	0x3c8ace00	0.016943932
176	0xbcc078dc	-0.02349513
177	0xbe78b718	-0.24288595
178	0x3dee66e2	0.11640717
179	0x3d640556	0.05566915
180	0xbe0de463	-0.13856654
181	0xbb1d42fd	-0.0023996227
182	0x3e73d5df	0.23812054
183	0xbe6d599b	-0.23178713
184	0xbcd2cdc6	-0.025732886
185	0x3d63e1ee	0.055635385
186	0xbd97bc9f	-0.074090235
187	0xbec9817b	-0.39356598
188	0xbd683131	-0.056687538
189	0xbcfc3b34	-0.030789949
190	0xbc89deae	-0.016829815
191	0xbe9f857e	-0.31156534
192	0xbe3ec965	-0.18631513
193	0xbe87f227	-0.26551935
194	0xbdf7e887	-0.12104898
195	0x3d81ca15	0.06337372
196	0xbdab2d8d	-0.083582975
197	0x3b74e617	0.003736859
198	0xbc662221	-0.014046223
199	0xbd6b89b9	-0.05750439
200	0xbde53ada	-0.11192866
201	0x3e10d0f0	0.14142203
202	0x3fb354b8	1.4010229
203	0xbd9ef206	-0.07761006
204	0x3b74bb6c	0.0037343157
205	0xbe188d53	-0.14897661
206	0xbe4b9197	-0.19879757
207	0x3f09f4e4	0.538893
208	0x3e13d143	0.14435296
209	0xbea838f6	-0.32855958
210	0x3e0ae0da	0.13562337
211	0xbce92c4c	-0.028463505
212	0x3f1258e0	0.5716686
213	0xbe3b1635	-0.1827019
214	0xbc945582	-0.01810718
215	0xbd92a96f	-0.07161223
216	0xbcdbf4a0	-0.026850045
217	0xbe9d0719	-0.30669478
218	0x3f1150e7	0.5676407
219	0xbe291fd3	-0.16516046
220	0x3f15f4a0	0.58576393
221	0xbd51a3da	-0.05118165
222	0xbbe3de0b	-0.00695396
223	0x3df17ebd	0.117917515
224	0xbcf73b2f	-0.030179588
225	0x3f04f98f	0.51943296
226	0xbd5cff2c	-0.05395429
227	0xbe20186f	-0.1563432
228	0xbce44d76	-0.027868968
229	0x3d9120f7	0.07086366
230	0xbe4beedb	-0.19915335
231	0xbbcd12a9	-0.006258328
232	0x3e8f9cb8	0.28049254
233	0xbd788366	-0.060672186
234	0xbc882f88	-0.016624227
235	0xbbd25920	-0.006419316
236	0x3cfc3125	0.030785153
237	0xbc3a1e07	-0.011359698
238	0x3f76629b	0.9624421
239	0xbe58e455	-0.21180852
240	0xbf0c2a85	-0.5475238
241	0xbd51d69b	-0.051230054
242	0xbbedbfaa	-0.007255514
243	0x3efc3ddb	0.49265942
244	0xbe4c4065	-0.1994644
245	0x3df5ebf9	0.12007899
246	0xbce78924	-0.028263636
247	0xbd37b74f	-0.04485255
248	0xbc973a34	-0.01846037
249	0x3f01cc4c	0.5070236
250	0xbbd603b8	-0.006531205
251	0x3e9edc1d	0.31027308
252	0xbf066289	-0.524941
253	0x3d90af19	0.07064647
254	0x3e2f7666	0.17135009
255	0xbdbd6999	-0.09248657
