load/solved-rnn-bg-easy-1/bg_layer_batch_norm_0_1.npy (npy, 4128 bytes, 1 tensors)

array f4 [1000]
00000000: 87e2 0bbe 1ba7 193e a12e fe3d 7b4c bc3d
00000010: 0fbb ee3d 06b2 02be 6a26 f3bd c66a 1f3e
00000020: c3dd 1ebe a1f3 1a3e 61ff 1a3e 9208 2abe
00000030: 640d 0b3e 196e f4bd 9b11 233e 7b06 26be
00000040: 278f fc3d 8a4d 083e 65b4 1b3e e704 25be
00000050: 67fd 3abd 878c 263e a29b dcbd 600b 0c3e
00000060: 2c72 02be 6dde 253e 5bc8 d93d 32e9 02be
00000070: f499 ebbd ebd1 063e 5e2b 223e 7640 023e
00000080: a0a6 ed3d db0c 003e d6ce ff3d 2e27 0d3e
00000090: a960 10be 578a 263e 0d0a 0abe ab85 103e
000000a0: 3ea1 143e cb3e 193e 8a02 12be e69e 1b3e
000000b0: 8844 28be b118 ad3d ec22 27be 3a14 28be
000000c0: a062 0fbe 6a05 183e fbd9 11be d453 d83d
000000d0: e469 24be f029 013e 5769 0ebe 430c 183e
000000e0: 6994 06be 4e92 02be 163a eabd d96a 173e
000000f0: 0336 14be c20e 173e 11bc 143e 96be e23d
00000100: 2d87 af3d 69df ed3d 70ef 29be 71f2 dd3d
00000110: 7e89 da3d 9e4b 093e 3e96 d53d 1918 1ebe
00000120: 0bd6 0f3e 5275 063e a92d 063e 0947 0a3e
00000130: 8862 133e c1d3 2c3e 386d 9f3d c507 193e
00000140: e6e0 293e 0889 1fbe 3cf0 15be d7e0 ef3d
00000150: 7f3e 1f3e a69e 20be a551 2e3e c2a3 1ebe
00000160: 144b 1abe ce1a 0dbe b30d 20be 5ee2 2bbe
00000170: 88b0 eabd 9c8b 01be 61ab 21be 5cab 293e
00000180: a816 00be 4f53 0a3e f879 bb3d cf16 213e
00000190: 2ff5 1ebe ff64 20be b8ad fa3d a3ff 133e
000001a0: d479 1abe 6ce8 1f3e 4f8c c7bd 6205 12be
000001b0: d0dc 173e 3edb f53d faa9 143e 47fb 0dbe
000001c0: 73b4 21be 0baf 2dbe 29e1 183e fb70 013e
000001d0: dca7 23be c36d 2abe 44bd b73d 1ce3 1cbe
000001e0: 2ddb 11be 9339 f23d 162a 2dbe 0dd9 1e3e
000001f0: d5a7 083e 088a b0bd 7e79 123e 8f72 0b3e
00000200: d270 023e 6d2e f4bd 8211 18be b3b8 06be
00000210: 9db5 07be cd2a df3d f8b7 0c3e bb76 21be
00000220: 8097 05be 0dd5 163e 227a 243e 83ba 1bbe
00000230: e95f 10be c264 d33d 48c6 1b3e cbb5 283e
00000240: 4df9 27be a2d9 093e f6a1 be3d 143e 09be
00000250: 0a38 143e d522 223e 9622 c3bd c4a3 1cbe
00000260: 6b74 243e d61f 04be cf99 273e ef54 dabd
00000270: d0f7 1d3e 71db ff3d 0537 81bd 86af 04be
00000280: 43cf 1a3e 04c7 ba3b 25b7 0abe af30 b73d
00000290: e3f9 07be ca7e 263e 8e32 00be da91 103e
000002a0: 8646 1fbe 079d f7bd cb7a 08be c568 09be
000002b0: 5a83 0a3e f510 1d3e b17d 0e3e 03ce 193e
000002c0: a22d f3bd e30c 293e 7dbe 203e aa66 07be
000002d0: 1966 123e 1099 e8bd 9d57 103e 775c 453d
000002e0: d507 09be cf47 423d 937b 1e3e 4256 133e
000002f0: ca41 f3bd 5f0c 123e 4636 1e3e b0d4 b0bd
00000300: 79d7 d3bd 10c2 143e c851 063e a343 213e
00000310: 90e2 2ebe d397 223e 92b5 20be 59bf 1fbe
00000320: aa58 1dbe e562 1c3e d373 16be eaa2 233e
00000330: 9f86 19be 87ee 963d 78d9 26be ff66 c9bd
00000340: 3e4c 143e 08cb 153e 5882 2ebe 4630 ff3d
00000350: 4bda 343e b4ab 1cbe 965f 25be a80c 263e
00000360: d545 223e 5689 04be bb3c 143e 53b6 02be
00000370: 227b fbbd bd8a b4bd efae 143e d805 e9bd
00000380: 29e8 12be 53aa f7bd 9223 23be 9772 b7bd
00000390: 8791 16be c819 a4bd 95e7 0e3e 83c9 18be
000003a0: 67db 06be 3cdb f83d 6f88 19be d960 2a3e
000003b0: 270e 08be 9d39 2cbe 1e97 b5bd 4648 103e
000003c0: a131 12be f0d4 24be d0a1 e13d bc96 2abe
000003d0: 2aed 223e 26fc 003e 3a11 12be c67d 0c3e
000003e0: 3dd9 0dbe 4530 46bd 529e 133e 9bcb 1b3e
000003f0: be92 2d3e 7f95 183e 1ab4 04be 63c7 1e3e
-0.13660632 0.15005152 0.124112375 0.09194275 0.11656772 -0.12763223 -0.11872561 0.15568075
-0.15514283 0.15132 0.15136482 -0.16604832 0.13579327 -0.11935062 0.15924685 -0.1621341
0.12331992 0.13310829 0.15205534 -0.16115151 -0.04565182 0.16264544 -0.10771872 0.13676214
-0.12738866 0.1619813 0.10633918 -0.1278427 -0.115039736 0.13166015 0.15836856 0.12719902
0.11604047 0.12504904 0.12490623 0.13784477 -0.14099373 0.1626371 -0.13480397 0.1411349
0.14514634 0.1496536 -0.14258781 0.15197334 -0.16432393 0.08451975 -0.16321915 -0.16413966
-0.14002466 0.14845815 -0.14243309 0.10562864 -0.16056019 0.12613654 -0.13907371 0.14848427
-0.13142551 -0.12751123 -0.1143686 0.14786853 -0.14473729 0.14751723 0.14524867 0.11071508
0.085707046 0.11614878 -0.16595244 0.10837258 0.10670756 0.13407752 0.10429047 -0.1543888
0.14046495 0.13130692 0.13103355 0.1350366 0.14393055 0.16877653 0.07784504 0.1494437
0.16589698 -0.15579617 -0.14642423 0.11712807 0.15551184 -0.1568552 0.17023332 -0.15492156
-0.15067703 -0.13779756 -0.15630226 -0.16785571 -0.11459452 -0.12650913 -0.15788032 0.16569275
-0.12508643 0.13508342 0.09154123 0.15731357 -0.15523218 -0.15663527 0.122401655 0.14452986
-0.15085536 0.15616006 -0.097435586 -0.14259866 0.14830327 0.12004708 0.14517966 -0.13865386
-0.15791492 -0.16961305 0.14929642 0.12640755 -0.15982002 -0.16643433 0.089716464 -0.1532101
-0.14243765 0.11827388 -0.16910586 0.15512486 0.13345273 -0.08620077 0.14304158 0.1361792
0.1273835 -0.119229175 -0.14850429 -0.13156395 -0.13252874 0.108968355 0.13742054 -0.15767948
-0.13046074 0.1472971 0.16062215 -0.15207867 -0.14099087 0.103219524 0.15212357 0.16475599
-0.16403694 0.13461927 0.09308235 -0.13402587 0.14474502 0.158336 -0.09528081 -0.15296847
0.16060035 -0.1290277 0.16367267 -0.10660731 0.15426564 0.12493027 -0.06309322 -0.12957582
0.15118127 0.005699994 -0.13546427 0.089448325 -0.13278918 0.16259304 -0.12519285 0.14118138
-0.15554246 -0.120904975 -0.13328092 -0.13418873 0.13526669 0.153385 0.13915135 0.15019993
-0.11873938 0.16508822 0.15697666 -0.13222757 0.1429676 -0.11357319 0.14095922 0.048183884
-0.13381894 0.047431763 0.15476827 0.14388373 -0.11877783 0.14262532 0.15450391 -0.08634317
-0.103438325 0.14527154 0.13117135 0.15748458 -0.17078614 0.15878229 -0.15694264 -0.15600337
-0.15365854 0.152721 -0.14692621 0.15980116 -0.1499276 0.07369714 -0.16293895 -0.09834098
0.14482209 0.14628232 -0.1704191 0.12460379 0.17661397 -0.15299875 -0.16149744 0.16215765
0.15846951 -0.12943015 0.14476292 -0.12764864 -0.12279345 -0.08815525 0.14519857 -0.11378068
-0.14346375 -0.12093034 -0.15931538 -0.08957403 -0.14703952 -0.0801273 0.13955529 -0.1492062
-0.13169633 0.12151191 -0.14993452 0.16638507 -0.13286649 -0.16818853 -0.08866714 0.1409007
-0.14276744 -0.16096854 0.110171914 -0.16659063 0.15910783 0.12596187 -0.14264384 0.13719854
-0.13852401 -0.048385877 0.14415863 0.15214388 0.16950509 0.14900778 -0.12959328 0.15505747
