load/solved-rnn-bg-easy-1/bg_layer_0_biases.npy (npy, 4128 bytes, 1 tensors)

array f4 [1000]
000000 26 5c 31 3d 9f db 70 3b 73 70 0d bc fa 08 84 b9
       0.04330077 0.0036751998 -0.008632767 -0.0002518369
000010 dc d1 9c b9 6b f7 30 bd 37 75 a0 3c 50 d6 71 bd
       -0.00029910996 -0.043204706 0.019587142 -0.059042275
000020 7e 77 e3 3c 24 f7 c3 bc 3f ba 2b ba b9 31 4c 3d
       0.02776694 -0.023921557 -0.0006550885 0.049852107
000030 2f fe 00 ba 48 b3 2a bd d7 48 00 3e e4 2e 5a 3d
       -0.0004920689 -0.041674882 0.12527786 0.053267375
000040 c8 36 bb bb 96 1d 9a b7 83 a8 4d bd 62 a0 64 bd
       -0.0057133175 -1.8372008e-05 -0.050209533 -0.055817015
000050 43 b7 00 b7 1c c8 4f b9 22 72 20 bd 5e 5e c1 bc
       -7.6720635e-06 -0.00019815605 -0.039171346 -0.023604568
000060 30 08 3b 3d 79 bd ef b8 a2 1a 52 3d 9d e9 4d bd
       0.045662105 -0.000114317 0.05129493 -0.05027162
000070 e1 50 92 3c 19 cc 1f bb 81 fd 4b 3d 9f 5d 6f bc
       0.017860832 -0.0024383126 0.049802307 -0.014609723
000080 bc bd 9c ba 99 88 2e bb 6d a2 dd b9 23 2d cb bb
       -0.0011958401 -0.0026631712 -0.0004227342 -0.006200449
000090 92 cf 33 3c 74 8f ef 3d 57 fa 8b 3c 58 99 ba bb
       0.010974782 0.116972834 0.017087145 -0.0056945495
0000a0 8e 4f 96 bc 4c 1f 4d bc a5 59 e6 3c 98 ee 95 38
       -0.018348482 -0.012519669 0.028118918 7.149315e-05
0000b0 9e ec 69 bd 49 12 da ba 94 8b 61 bd 31 90 7f bd
       -0.05711042 -0.001663753 -0.055064753 -0.06239337
0000c0 02 39 e5 3c a0 27 68 3b 05 37 16 3d 7a 5c 35 3d
       0.027981285 0.003542401 0.036673564 0.044277646
0000d0 58 9b 6c bd 10 41 ab 3d 9c 0f db bc 27 89 06 3b
       -0.057765335 0.08362019 -0.026740842 0.0020528527
0000e0 d7 1b 5a b8 09 95 18 3d 6f 04 2a bd ad e0 1e ba
       -5.2001178e-05 0.037251506 -0.041508134 -0.0006060701
0000f0 4c 18 97 3c 00 00 00 00 51 f4 73 3d c1 e7 5b 3d
       0.018444203 0.0 0.05955917 0.053687815
000100 a0 74 0c 3d 00 00 00 00 80 bf 09 3a 54 0b c1 bc
       0.03429091 0.0 0.0005254671 -0.023564972
000110 44 04 11 ba 55 25 8a bc dd 52 4c 3d e4 be 9a bb
       -0.00055319467 -0.016863504 0.049883712 -0.004722463
000120 0b 14 4b bc 8f 0d 4b bb 9b 04 78 bc da 9c bd bb
       -0.012394915 -0.0030983423 -0.015137817 -0.0057865204
000130 b3 e6 f7 bb 36 88 94 bc a9 5f d8 3c fc 96 80 bc
       -0.0075653433 -0.018131357 0.026412802 -0.015696995
000140 6d df 1d bd 0f c7 56 3d 90 56 8f b7 56 99 aa b9
       -0.038543154 0.05243593 -1.7087237e-05 -0.0003253917
000150 e8 fc 77 3b 1a 06 ae 3c 90 8e 3b ba 00 00 00 00
       0.0037839953 0.021243144 -0.00071547274 0.0
000160 66 65 53 3d 00 00 00 00 00 00 00 00 02 cf 12 3c
       0.051610373 0.0 0.0 0.008960487
000170 aa 45 95 b8 00 00 00 00 11 0d 6f bd 8f c5 9e bc
       -7.1178496e-05 0.0 -0.05836207 -0.019381313
000180 2e 04 98 bc 31 32 5f bd 9a 98 1b 3d 66 ea 94 bc
       -0.01855668 -0.054491226 0.03798733 -0.018178176
000190 9f 36 78 bd 2e 26 59 bd 24 7d 74 3d c6 e3 1e bc
       -0.060598966 -0.053014927 0.059689656 -0.00969786
0001a0 2e d8 71 b7 c0 41 76 3b aa 49 50 3c e8 bb 72 3c
       -1.4415053e-05 0.003757581 0.012712875 0.014815308
0001b0 47 ef 93 bc f4 4a 58 bc 45 a0 81 3a 0e fc 9e 3c
       -0.018058432 -0.013201464 0.0009889683 0.019407298
0001c0 1e f3 7d 3d 00 00 00 00 68 95 53 b8 ac 41 9b 3d
       0.061999433 0.0 -5.0445466e-05 0.07580885
0001d0 3a 07 5a 3d 0f fa 42 3d 00 00 00 00 ad f7 05 3d
       0.053229548 0.047601756 0.0 0.032706905
0001e0 73 f2 67 bd a6 e6 86 3d 00 00 00 00 b1 61 56 ba
       -0.056627702 0.065869614 0.0 -0.00081780093
0001f0 9f ae 13 3b 97 37 a0 3c bd 05 c0 3d d3 df be 3d
       0.0022534502 0.019557757 0.093760945 0.09320035
000200 1d cc 9a 3d 4a 4f 9c bc c7 82 a7 3c ac 90 30 bb
       0.07558463 -0.019080777 0.020448102 -0.00269417
000210 00 00 00 00 6c b6 0e 39 22 ba ae 3d 00 00 00 00
       0.0 0.00013610133 0.08531596 0.0
000220 33 38 3c bd cc ca e5 bb 00 00 00 00 8d 8f 6f bd
       -0.045952033 -0.0070127007 0.0 -0.05848651
000230 ee fb f5 3c e1 60 21 bc 68 eb 29 ba a3 3b 97 bc
       0.030027356 -0.009849758 -0.00064819166 -0.018461054
000240 03 78 20 ba e0 94 f7 b9 00 00 00 00 d9 76 5d bd
       -0.0006121399 -0.00047222432 0.0 -0.05406842
000250 49 22 55 bb 2d 26 89 ba 43 31 f6 bc 71 f0 49 bd
       -0.0032521656 -0.0010463648 -0.030052787 -0.04930157
000260 f4 f6 d8 bb af 11 06 3d b2 56 07 bc 00 00 00 00
       -0.006621236 0.03273171 -0.008260416 0.0
000270 8e 71 28 3b 39 8d 8b 3d 10 86 8a bc 4d bf 67 b8
       0.002570245 0.068140455 -0.01690963 -5.5252855e-05
000280 46 c6 94 bc d5 f7 a0 b9 0c a2 4f bd f7 5d 05 3d
       -0.01816095 -0.00030702227 -0.05069165 0.032560315
000290 c0 99 3d bd ae 90 f9 3d 12 2c 33 bd 8c 4a 87 bc
       -0.046289206 0.121857986 -0.0437432 -0.016515039
0002a0 6c 2d 65 3c 36 ce ad 3c a2 52 3a bd ed 79 45 bd
       0.01398788 0.021216493 -0.04548896 -0.04821198
0002b0 a8 13 2a ba 9f ea 6a 3b 92 3c 50 bb 62 54 8f bc
       -0.00064879144 0.0035845411 -0.0031774384 -0.017496292
0002c0 03 cd 55 bb 33 1a 5b bb 17 e0 75 3b ad 0c dd bb
       -0.0032623417 -0.0033432364 0.00375176 -0.006745896
0002d0 00 00 00 00 55 4d 1f bd 19 58 6a bc 5c 51 6e 3c
       0.0 -0.03889211 -0.014303231 0.014545765
0002e0 ad 75 bb 3c 00 00 00 00 df 04 92 bc 50 a9 03 bd
       0.02288326 0.0 -0.017824588 -0.03214389
0002f0 5e 48 24 bd 7a f5 d4 3d 9d 1a 23 3b 7f c2 3c ba
       -0.040108077 0.103983834 0.002488769 -0.0007200613
000300 20 e5 ea bb 61 42 06 ba 2a b3 ab ba cd 37 84 bb
       -0.007168427 -0.00051215856 -0.001309966 -0.0040349723
000310 30 ba 70 bd 3b b5 9d bc bb a9 73 bd 7f 0c 4f b8
       -0.058771312 -0.019251456 -0.05948804 -4.9364284e-05
000320 d8 69 5c bd 6f b9 0a 3b 6e f8 31 bd 47 e6 5d b8
       -0.053811878 0.0021167656 -0.04344981 -5.290497e-05
000330 50 d0 84 bb 05 50 9e bb 6f 64 da 3c fc dc 63 ba
       -0.004053153 -0.0048313164 0.026659219 -0.0008692292
000340 54 36 57 b7 ee d9 ee 3a 09 be 81 bd 0a c8 20 3d
       -1.2827648e-05 0.0018222907 -0.063350745 0.039253272
000350 ea a7 a0 bc 1c 7a 67 bd 00 00 00 00 df 89 95 3b
       -0.019611318 -0.056512937 0.0 0.0045635547
000360 61 74 94 bc d5 df 2a b9 2a f6 6f bd d1 1c aa 3c
       -0.0181219 -0.00016295847 -0.05858437 0.020765694
000370 0b 60 34 bd 9e 89 5c 3c 99 62 dd ba 50 de 7b 3c
       -0.044036906 0.013460545 -0.0016890346 0.015372828
000380 93 9c 55 3d 8d 81 27 bd f7 ee 45 bd 59 20 f7 bc
       0.052151274 -0.040895034 -0.048323598 -0.030166792
000390 00 00 00 00 4b 87 1a b7 1f 51 3c 3b d9 d3 a3 3d
       0.0 -9.210616e-06 0.0028734875 0.07999391
0003a0 06 f7 e1 3c d5 94 84 3d e4 b9 51 bd 8c 58 73 bc
       0.02758361 0.064737 -0.05120267 -0.014852654
0003b0 ac 88 81 3d c4 8b 58 bd 60 5e e8 bc 74 42 c7 3d
       0.06324896 -0.052867666 -0.028365314 0.09729472
0003c0 51 29 bc bb c3 ec 55 bd dd f1 61 3d 3a 46 4e bd
       -0.00574223 -0.052227747 0.0551623 -0.050359942
0003d0 99 1d 64 bc 35 05 19 bd fa ab 0c 3c 4e 06 80 bc
       -0.013923072 -0.03735848 0.008585924 -0.015628006
0003e0 de 7b 21 b9 09 c3 4c bc 8d 9f 89 bc 1b 6e 90 bc
       -0.000154003 -0.012497672 -0.016799713 -0.017630627
0003f0 9c c8 f7 3d c3 10 2e 3b a6 6a 7d 3d 89 94 89 bc
       0.1209881 0.0026560284 0.061869286 -0.01679446
