load/solved-rnn-bg-easy-1/bs_layer_1_biases.npy (npy, 4128 bytes, 1 tensors)

array f4 [1000]
0	0xbe0da5aa	-0.13832727
1	0xbdbf898e	-0.09352408
2	0x3f22a423	0.635317
3	0x3ef34098	0.4751022
4	0xbe1f9cf8	-0.15587223
5	0xbdcf4ab8	-0.10121673
6	0xbe8926cd	-0.26787415
7	0xbd48a523	-0.04898561
8	0xbe4b705d	-0.19867082
9	0xbdc71f8f	-0.09722816
10	0xbddfda53	-0.10930314
11	0xbe5cef34	-0.21575624
12	0x3c008282	0.0078436155
13	0xbe3670ee	-0.17816517
14	0xbe5ffe35	-0.21874316
15	0xbe819c60	-0.25314617
16	0xbe826ed0	-0.25475168
17	0xbe886c42	-0.26645094
18	0xbe277407	-0.16352855
19	0x3d4eda09	0.050500903
20	0xbe7d8226	-0.24756679
21	0xbe48e92a	-0.19620195
22	0xbe251607	-0.16121684
23	0x3eec3cf5	0.46140257
24	0x3d3277d2	0.0435713
25	0xbe6e2a09	-0.23258223
26	0x3d589668	0.052877814
27	0xbdc6931a	-0.09696026
28	0xbe2dfde4	-0.16991383
29	0x3e051672	0.12996843
30	0x3e4de10a	0.20105377
31	0x3d94982e	0.072555885
32	0xbd30aa71	-0.043131296
33	0xbdb4b856	-0.08824222
34	0x3cbd1c02	0.023084644
35	0xbeddd901	-0.43329623
36	0xbe819830	-0.25311422
37	0x3f06bc12	0.5263072
38	0x3efd6d2e	0.4949736
39	0x3d8f06a1	0.06983686
40	0xbeae9f37	-0.34105846
41	0x3e2ea10b	0.1705362
42	0xbddb231f	-0.10700058
43	0xbe108844	-0.14114481
44	0xbe3bfd62	-0.18358377
45	0xbd8889cc	-0.06666908
46	0xbe0ded33	-0.13860016
47	0xbe1d81da	-0.15381566
48	0xbe3509ea	-0.17679563
49	0x3ca0ab94	0.019613065
50	0x3e9b97c9	0.3038924
51	0x3b7c745a	0.00385215
52	0xbe547ead	-0.20751448
53	0xbd22b57e	-0.039723866
54	0xbe60b0ef	-0.21942495
55	0x3e8d08ef	0.27545878
56	0xbe6de6b9	-0.23232545
57	0xbe0ac987	-0.13553439
58	0x3dadfb6c	0.084952205
59	0x3f06ad02	0.5260774
60	0xbd8311b3	-0.0639986
61	0xbddc231a	-0.107488826
62	0xbe07b806	-0.13253793
63	0xbe28dd3f	-0.16490649
64	0x3f154eb9	0.58323246
65	0xbe52ded4	-0.20592815
66	0x3e802478	0.25027823
67	0x3a1c822c	0.0005970325
68	0xbe2e759d	-0.17037053
69	0xbe8effbd	-0.27929488
70	0x3ec141da	0.37745553
71	0xbe32397b	-0.1740474
72	0xbe39c07a	-0.1813983
73	0xbe0a713e	-0.13519761
74	0xbd1244c0	-0.035710096
75	0x3f115dd0	0.5678377
76	0x3eccf72a	0.4003232
77	0x3f599843	0.8499796
78	0x3e82f100	0.25574493
79	0x3d705a44	0.058679834
80	0xbddba7b9	-0.1072535
81	0xbe04c899	-0.12967147
82	0xbe5c1d39	-0.21495523
83	0xbe3c2d7c	-0.18376726
84	0x3eae8f45	0.3409368
85	0xbda963ba	-0.082709745
86	0xbe855d4b	-0.2604774
87	0xbdc2de46	-0.095150515
88	0x3d945d0d	0.072443105
89	0xbdd0da61	-0.101979025
90	0xbe65739e	-0.22407386
91	0x3ed75a2c	0.42060983
92	0x3ed03f31	0.4067321
93	0x3d7c9315	0.061663706
94	0x3e1a042e	0.15040657
95	0xbe1c2014	-0.15246612
96	0xbd6db28a	-0.058031596
97	0x3e12242a	0.14271608
98	0x3e762419	0.24037208
99	0xbe555630	-0.20833659
100	0x3d2d50d2	0.042313404
101	0xbe4692fd	-0.19392009
102	0xbd9d36e7	-0.076764874
103	0xb988c22c	-0.0002608461
104	0x3f52dba1	0.8236638
105	0xbe0901b3	-0.13379554
106	0x3e9c7b37	0.30562755
107	0xbdc81ec3	-0.09771492
108	0x3e18ceeb	0.14922683
109	0xbe31a78f	-0.17349075
110	0xbc66f686	-0.014096862
111	0xbe8cba38	-0.27485824
112	0x3cd7ff6d	0.026366914
113	0xbd8add0f	-0.06780445
114	0x3ef65b29	0.48116425
115	0xbeff6d6b	-0.49888167
116	0xbe20d711	-0.15707041
117	0x3e7876ef	0.2426412
118	0xbed7bf3f	-0.42138097
119	0xbd695303	-0.05696393
120	0xbde343d7	-0.11096924
121	0xbe85afee	-0.26110786
122	0xbe3d629f	-0.18494652
123	0x3f1a9f13	0.6039898
124	0xbe328f3d	-0.17437454
125	0x3d95e074	0.07318202
126	0x3d9c9199	0.07644958
127	0xbe3855b2	-0.1800144
128	0xbdfd566b	-0.123699985
129	0xbe030c39	-0.12797631
130	0x3f789dd8	0.9711585
131	0xbe5a8a5a	-0.2134184
132	0xbdb66d4d	-0.08907566
133	0xbd8ee7eb	-0.069778286
134	0x3ef0300e	0.46911663
135	0xbdee7468	-0.116432965
136	0xbe7ebb57	-0.24876152
137	0xbe5ee728	-0.21767867
138	0xbd9920de	-0.07476972
139	0x3e190c13	0.14946012
140	0xbe255979	-0.16147412
141	0xbe913caa	-0.28366596
142	0xbe74b461	-0.23896934
143	0x3f19b9e4	0.6004927
144	0xbe803100	-0.25037384
145	0x3e966656	0.2937495
146	0x3e9d4ab4	0.30721056
147	0x3cdeb718	0.027186915
148	0x3e9a39c0	0.30122185
149	0x3db1e9fd	0.08687208
150	0xbd8ad967	-0.067797475
151	0xbe5a452d	-0.21315451
152	0x3f11c4e1	0.5694104
153	0xbe48cd9c	-0.19609684
154	0xbe1a24bf	-0.1505308
155	0xbe3303bc	-0.17481893
156	0x3d04bcd4	0.032406643
157	0x3dee1121	0.11624361
158	0xbe0e875c	-0.13918823
159	0x3e95ec36	0.29281777
160	0xbe3afc95	-0.18260415
161	0xbe3b6231	-0.18299176
162	0xbccae49b	-0.02476721
163	0x3d6f05cf	0.05835515
164	0x3f19dfcb	0.60107106
165	0xbde3890a	-0.111101225
166	0xbe4e1efc	-0.20129007
167	0x3e07437e	0.1320934
168	0x3f0e5c0a	0.5560919
169	0x3e595cd7	0.21226822
170	0xbd0205db	-0.031743865
171	0xbd45faee	-0.04833501
172	0xbd9a0725	-0.07520894
173	0x3efc3c09	0.49264553
174	0xbe7facad	-0.24968214
175	0xbe87cb35	-0.26522222
176	0xbd7709a7	-0.06031194
177	0xbdf1e308	-0.11810881
178	0xbccf5b61	-0.025312128
179	0x3f2f9126	0.68580854
180	0x3ecccbc7	0.3999922
181	0xbcc319fe	-0.023816105
182	0xbde15113	-0.11001792
183	0x3f18c522	0.596758
184	0x3f1c5db9	0.6108051
185	0xbdc16c31	-0.09444464
186	0xbe503a50	-0.20334744
187	0xbdbe469f	-0.09290814
188	0xbe258599	-0.16164245
189	0x3d47e3cc	0.04880123
190	0x3ee939f4	0.45552027
191	0xbdbafb0b	-0.09129914
192	0xbc83a73a	-0.01607095
193	0xbdcc319c	-0.099704
194	0xbe1ebe6f	-0.15502332
195	0xbd04d477	-0.032429185
196	0x3ed01048	0.40637422
197	0x3e1a5d2e	0.15074608
198	0xbe68a4cf	-0.2271912
199	0xbe0d1239	-0.13776483
200	0x3d951b85	0.072806396
201	0xbe42c615	-0.19020875
202	0xbe3a48b3	-0.18191795
203	0xbe4b817e	-0.19873616
204	0xbd0dcec5	-0.03462102
205	0x3f1b694d	0.6070755
206	0xbe74a2bd	-0.23890205
207	0x3ea3771c	0.3192681
208	0xbdcde953	-0.10054269
209	0xbd692532	-0.056920238
210	0x3d6b7f41	0.057494406
211	0xbd4e58ec	-0.05037777
212	0x3f24e822	0.64416707
213	0x3ce256dc	0.027629308
214	0xbd8974ac	-0.067117065
215	0xbe4f15ab	-0.2022311
216	0x3ea09cc4	0.31369603
217	0x3d2e94f2	0.042622514
218	0x3e171581	0.14754297
219	0xbe374899	-0.17898788
220	0xbdad43ab	-0.08460172
221	0xbe1fd14d	-0.15607186
222	0xbe63c496	-0.2224296
223	0x3dd146b0	0.10218561
224	0x3f005722	0.50132954
225	0x3eee9921	0.46601203
226	0xbe540246	-0.20703992
227	0x3e3fae72	0.1871889
228	0x3cf356af	0.02970442
229	0xbec0fde1	-0.37693694
230	0x3d182b05	0.0371504
231	0x3e5b8a22	0.21439412
232	0x3e9d152a	0.3068021
233	0x3e6d513e	0.23175523
234	0xbe7dcb9f	-0.24784707
235	0xbe598628	-0.21242583
236	0xbe86b894	-0.26312697
237	0xbe9387ef	-0.28814647
238	0xbe44c30e	-0.19215032
239	0x3d7515a8	0.059835106
240	0xbcfc6012	-0.030807529
241	0x3f27da6e	0.6556767
242	0x3eed1730	0.46306753
243	0xbc597eba	-0.013274843
244	0x3d2cdf85	0.042205352
245	0xbbbcf43e	-0.0057664206
246	0xbe315aa2	-0.1731973
247	0x3ebde395	0.37087694
248	0x3f3a5a48	0.7279401
249	0xbe486d37	-0.19572912
250	0xbe756476	-0.23964104
251	0x3f0ad6c7	0.54233974
252	0x3d08dd40	0.033414125
253	0x3e002d22	0.12517217
254	0xbef8d897	-0.48602745
255	0xbe9500bc	-0.29102123
