load/solved-rnn-bg-easy-1/bs_layer_batch_norm_a_1.npy (npy, 4128 bytes, 1 tensors)

array f4 [1000]
00000000: 19b4 6a3e 0385 723e 7e4c 833e 25c9 353f
00000010: 6366 0d3e 61e6 223e f81d 5d3c 9865 bd3d
00000020: 7aec 37bf 284f 443f 8b51 803e 9d2f 623e
00000030: 9f47 ba3e 8133 c63e c9f1 463e 7a05 4d3d
00000040: d3d1 673e 6794 bb3e 19d0 e13d bb5d c93b
00000050: 17dc 12be 4bb3 2c3e ca53 eebd 44d1 c13c
00000060: 856d 7fbe 9bdc 5f3e 8f47 333e 9e69 843e
00000070: 1b86 073e eacf 003e 4243 603e bd9e e73e
00000080: 45a9 793e 907c d13d 5fb9 fabb bfcf 8cbd
00000090: 13ae 103e 048b 633e 7ab5 5b3e d3ac 2d3c
000000a0: 4928 64be 6820 3d3f f804 de3e 6825 bf3d
000000b0: 148d f53e 5e68 683e 9f25 c13d 415b fd3e
000000c0: 94f4 3c3f 10f2 9a3e 40bd b43e c4b6 283e
000000d0: 9f41 38bf 9bf8 203e 9714 cb3e 96ca 393f
000000e0: c98b 533e ff29 6a3e 7525 0f3f de21 1abd
000000f0: e8a5 f93d c24c 0b3e 71e4 22bf 064d 9c3e
00000100: 8a10 2dbf e3dd 723e ae4e e83d 15fb e6bd
00000110: b6a5 b43e 4cd1 983e 19bb 9b3d 3d7d d33e
00000120: fb6e aa3e f65a 3c3e 598a 4a3e 1c3e 113e
00000130: 966e 533e 0bca c03d 7d88 873d 0af1 37bf
00000140: 5d24 9c3e 9b8e ba3e 2acd 693e d08b a33e
00000150: e3e2 fe3d 5555 1a3d 7d2f 733d c1b1 703e
00000160: 85a6 9e3d 70d9 9abe 6f5e 513e eea7 213e
00000170: 87e0 3d3e 4c24 093f 8016 693f 8854 793e
00000180: b988 453f 3a8f 6a3e 2514 1a3f 55c7 c13d
00000190: 7bd5 493e 98b4 a03d ba35 583e c4fe 983e
000001a0: bad3 5a3e 59ef 883e c073 ac3d ac1d 383f
000001b0: 154a e93c 8816 0b3e f8b0 c23d a113 fe3d
000001c0: e1b0 ac3e 6516 543c 1afa c13e f21c 173e
000001d0: e763 d8bb e5ce 113f b950 d1bc 347b 813e
000001e0: 3966 c63b 499f 3c3e 4db5 953d dd0d 38bf
000001f0: c815 e93e b56d 653e ba85 583d d023 933e
00000200: c289 e2ba b0e4 693e e6ab 8f3e 6fda 4cbe
00000210: 8f2e 8a3e 9621 38bf e344 353f 514a c23e
00000220: 2e29 3a3f dea3 383f f221 153e 5773 163e
00000230: 6f09 783e 0ae7 3abf 0a51 9b3e aa8b 453e
00000240: dfd5 913e ceae cb3d 4629 07bd 73d0 82bd
00000250: cb12 b73e 4f09 01be de0c 6e3e 9f2a 333f
00000260: a701 593e 0293 38bf 37de 883e 80b8 ad3e
00000270: 05d5 05be bd57 34bf 3295 073d e48c 4b3f
00000280: ecdf 323f f55e 333e 6e6a 4c3e ca39 8a3e
00000290: a443 bf3e e16b 883e 4cf1 433e f61d 173f
000002a0: a80e 643e 34a1 7b3e 2aea d33e ff6a 86be
000002b0: 3126 3a3f c88c 213d 0f5d 883e e84f 0b3e
000002c0: 3875 1e3d e6bd 38bf b9ce 723e b134 753e
000002d0: 9f26 88bd 08b0 383f 5d8b 38bf 062e 10bd
000002e0: 111c 043b a8b3 103e 3226 dd3e ce73 e83e
000002f0: 3e05 4d3e 7bf3 5a3e cee5 373e 8a6f d63d
00000300: 29a8 f53e 2537 a13e 9160 993e 223d 4c3e
00000310: a0d8 ce3d 80aa 2bbe d535 073f abe8 f63e
00000320: 3bb2 f53e 253a 863e ddda 353f 4576 c33e
00000330: cb32 793e de1a 963e b1b8 353f c987 f43d
00000340: 9cea fc3e 6908 32bf 7bd1 ac3e 1997 6d3e
00000350: e730 3b3e 386f 2fbf bae0 293d e925 3b3f
00000360: 366f e63e dfbb 873d d87a 943e 64f9 1bbe
00000370: 8978 b43e 9cd7 cd3e e07f c5bd dfa4 793e
00000380: ffcb ed3d 3fc4 813e d01b fc3d 9db1 a73e
00000390: 6c7f 913d 7080 ac3e 2683 803e 2210 523d
000003a0: dd1e d53e 4a66 123e f5cb 7a3e b8e0 d73d
000003b0: 7d16 b93e 0867 233e 1f04 f13e 55c6 2a3e
000003c0: dc93 d03e a1a4 373f 03b7 8cbe ef86 c53e
000003d0: 82a7 6f3e cc94 0f3e 4836 d73e 7417 d83e
000003e0: 8b58 3a3f 3096 b23e 0e02 1bbe 60f2 373f
000003f0: 2770 323f 5bcb aabd 1d04 023f 2c83 5c3e
0.22920264 0.23683552 0.25644296 0.7101005 0.13808589 0.15908195 0.013495915 0.09247893
-0.7184521 0.7668328 0.25062212 0.22088476 0.36382768 0.3871117 0.19428171 0.05005405
0.22638635 0.3663666 0.110260196 0.0061452067 -0.1434177 0.1686527 -0.11637075 0.023659356
-0.24944122 0.21861498 0.17507766 0.2586183 0.13234751 0.12579313 0.21900657 0.45238295
0.24380977 0.102288365 -0.0076514925 -0.06875562 0.14128904 0.22220999 0.21455947 0.010600287
-0.22280993 0.73877573 0.43363166 0.093333066 0.47959197 0.22696063 0.09431004 0.49483684
0.73810697 0.30262804 0.35300636 0.1647597 -0.7197513 0.15719835 0.39664146 0.72574747
0.20658793 0.22867583 0.5591653 -0.037629955 0.12189847 0.136035 -0.63629824 0.30527514
-0.6760336 0.23717456 0.11343132 -0.11278359 0.35282677 0.2984718 0.076040454 0.41306487
0.33287796 0.18394074 0.19779338 0.14183849 0.20647654 0.09413537 0.0661783 -0.7185217
0.30496493 0.36436924 0.2283217 0.31942606 0.12445619 0.037679035 0.05937146 0.23505308
0.07746605 -0.30244017 0.2044618 0.15786716 0.18542682 0.5357101 0.9104996 0.24348652
0.7716175 0.22906199 0.6018699 0.09461848 0.19710343 0.078469455 0.21114245 0.2988187
0.2136983 0.26745108 0.08420515 0.71920276 0.028477708 0.13582814 0.0950641 0.12406088
0.33728698 0.012944792 0.37886125 0.14757136 -0.006603706 0.5695632 -0.025551187 0.2528931
0.0060546664 0.18420137 0.07309971 -0.71896154 0.4552443 0.22405131 0.052861907 0.2873826
-0.0017283487 0.22841144 0.28060836 -0.20005201 0.26988646 -0.7192625 0.7080824 0.37947324
0.72719085 0.7212504 0.1456373 0.14692436 0.24222349 -0.7300879 0.30335265 0.19291559
0.28483483 0.09945451 -0.032998346 -0.06387415 0.35756525 -0.12601207 0.23247096 0.6998691
0.21192037 -0.72099316 0.26732036 0.33929825 -0.13069542 -0.7044638 0.033101268 0.7951186
0.6987293 0.17516692 0.19962475 0.26997215 0.37356293 0.26644805 0.19135016 0.5903009
0.22271216 0.24573213 0.4138959 -0.26253507 0.72714525 0.0394409 0.26633498 0.136047
0.038686007 -0.7216476 0.23711671 0.23945881 -0.066479914 0.721436 -0.7208765 -0.03520014
0.002015833 0.14131033 0.43193203 0.45400852 0.20021531 0.21381943 0.17958757 0.10470493
0.4797986 0.31487384 0.29956487 0.19945195 0.10099912 -0.1676426 0.52816516 0.48224387
0.47987542 0.26216236 0.71037084 0.3817617 0.24335782 0.29317373 0.7098494 0.119399615
0.49397743 -0.6954408 0.3375357 0.2320217 0.18280374 -0.6852908 0.04147408 0.7310472
0.45006722 0.066276304 0.28999972 -0.15231854 0.3524821 0.4020356 -0.09643531 0.243793
0.11611175 0.25345036 0.12309992 0.32752696 0.07104382 0.3369174 0.25100058 0.051284917
0.4162511 0.14296833 0.24491866 0.105409086 0.3614997 0.15957272 0.47073457 0.1667722
0.40737808 0.7173558 -0.27483377 0.3857951 0.23403743 0.14021605 0.420336 0.42205393
0.72791356 0.3488021 -0.15137503 0.7185421 0.6970238 -0.08339568 0.50787526 0.21534413
