load/solved-rnn-bg-easy-1/critic_layer_0_weights.npy (npy, 72128 bytes, 1 tensors)

array f4 [18, 1000]
00000000: 5c02 6bbd 2e81 763d 5036 f23c 2846 adba
00000010: acf0 cbbc 7302 8ebc 34c7 16bc 3057 df3c
00000020: f25c e1bb 2e28 d9bb 9a74 803c 2e8a 4dba
00000030: 9b58 9b3b de42 213d abd9 febc 52c2 aebb
00000040: 3ff4 9d3c dc54 2b3b ebc9 03bc 9484 a1bc
00000050: 5a0f afbc 3c8c dcba 3209 d9bb 5623 343d
00000060: 478a b0bb 3c60 9b3d f8b1 4dbb c3dc ccbc
00000070: 582b abbc 4e10 7fbc 7121 9b3b bc09 0ebc
00000080: 6f5f 0dbc 047e b4bb 28bc 893c 9a08 a03b
00000090: 81c0 0abb e6a5 f23b cc98 67bd 8d97 42bc
000000a0: 6905 07bc dc99 cfbb 9468 073b 882e 22bc
000000b0: d8b7 853c 4493 37bb 3986 1f3d 92aa a4bb
000000c0: 8b1c aabc 34a7 afbb 4523 0cbc 650b c6bb
000000d0: 01fc 473c f242 683d e745 f03b 3418 69bc
000000e0: bcea 0abc 41e3 603a 2fb4 0fbc d6c7 883b
000000f0: cf31 413c 5db9 93bc 0daf 59bc bc45 cfbb
00000100: 42df ad3c 49b8 bfbb b5ff 86bc b6a4 12bd
00000110: c4d8 87bc dbe7 ff3c 4641 96bb 55af 503a
00000120: dea0 a6bb 98de bc3c e5ee 8fbc 324d 1c3d
00000130: e122 0ebb 3881 eebb af93 94bc 81d4 983c
00000140: 1832 20bc d6b3 713c a4cf 813a b175 92bc
00000150: 0081 753d 83e7 debb d650 e2bb 6ade 033d
00000160: c521 483c 0ee9 ad3b e20e 84bc fff7 d6bb
00000170: abfe 053e 32bd a6bc f577 bcbc 256b 5abc
00000180: 0fda 153d 6e9a 4c3d d536 a33b e897 25bd
00000190: 25bf debb 79a8 133d 0b8a cebc a96c 023c
000001a0: 2d54 c3bc a52d 333d 3ec8 19bc a193 2cbc
000001b0: d4e9 b9bb d009 b73a 22aa a1bc f3f5 8dbc
000001c0: 4224 ab3d 0ffb babc 7500 e2bb bc17 103d
000001d0: 6640 51bc ed4d 703c 796a 23bd ce9a cfbb
000001e0: 8945 233c 4cf2 d3bb 203b 193d 6e5e 9e3d
000001f0: e2c6 803b 5ab6 f2bd 68df c9bb 7d3d dfbb
00000200: 3ed8 603d a873 58bc 613d f33b f408 cabb
00000210: 3851 cabb a812 a53c 9d5d d53c d289 993a
00000220: 2ff9 aebc 02e0 6d3b 15dd 953c 4fd8 d1bd
00000230: e579 1fbb bec7 aabb 3c45 523c a4a2 7cbd
00000240: 3447 c6bb 24dc d3bb ca70 813c 8d67 313b
00000250: 0810 073a b5c1 923b fd03 81bc 2946 cc3c
00000260: 361c 98bc c714 91bc 039b 4ebc ddbd 503b
00000270: 9ed8 28bc 8dd6 d83c 218e 163c 838d 283c
00000280: 870d e0bb 3785 0dbc aad5 53bc ea91 d33d
00000290: ee8c 43bc 0e4f 50bc 3aa6 033c f459 a4bc
000002a0: 9c96 45bc 5288 a73d 3742 533c 0e00 f83c
000002b0: 1b47 dabb 5886 633c b97d 7bbc 01c2 993c
000002c0: d7f9 aebb 0266 6c3d 2212 203c 9ee0 583c
000002d0: 6cf5 8c3b 6acb 97bc f230 ad3d 0edf abbc
000002e0: 54ec d5bc 9817 80bb 9caf 8dbc 2cf8 23bb
000002f0: 46e5 b0bb 4894 af3c fcfe d6bb 2040 9abc
00000300: 7cc8 67bb 7b5a c63d 494b 1b3c e737 cbbb
00000310: c648 21bd 90aa 693c 67e9 a9bb 9d46 333d
00000320: 02da ffbb b0c5 823c adb2 d7bb 4b20 b3bb
00000330: eb44 1fbd ece7 1ebb c38f dabb 2bca b3bc
00000340: e0ec bebc 0617 03bb 4ff1 4a3d 2c7e 8abd
00000350: d769 88bc 44a1 c4bb 4c15 393d 0bb0 c4ba
00000360: 59ff 583c 41fe 773a 3d74 edbc 4aac 1e3c
00000370: 698d c3bc 3948 9fbc e339 86bc 1efd e03b
00000380: fea7 cabb cb04 41bd c558 d0bb 32f2 4d3b
00000390: ca42 0bbc 3d04 d7bc a218 0f3a c58e 77bc
000003a0: d079 c8bb cc69 d0ba a2d0 08ba ff05 cebc
000003b0: 37ad d2bb a84e 3d3c 5ae2 eebb deb8 c53d
000003c0: 7c10 b53c a376 93bc b042 333c 76c4 4c3c
000003d0: 6690 bf3d a347 1b3c 76d2 cdbc 999b c93c
000003e0: 2b29 32bc ac68 3abc 20af 8a38 c194 3a3b
000003f0: 430e a5bb eb80 7dbc ca2a 7f3a 9631 463c
-0.057375297 0.06018179 0.029566914 -0.0013219761 -0.024895035 -0.017335152 -0.009202767 0.027263254
-0.006877535 -0.0066271042 0.0156806 -0.000784072 0.004740787 0.03937041 -0.031109652 -0.0053332234
0.019281505 0.002614311 -0.008043746 -0.019716538 -0.021369625 -0.0016826461 -0.0066234106 0.04397901
-0.0053875777 0.075867146 -0.0031386595 -0.025007611 -0.020894691 -0.015567852 0.004734211 -0.008669313
-0.00862871 -0.0055081863 0.016813353 0.004883838 -0.002117187 0.0074050305 -0.056542203 -0.011876953
-0.008241036 -0.00633548 0.0020661699 -0.009898789 0.016323015 -0.002801136 0.038946364 -0.0050252164
-0.020765563 -0.0053605083 -0.008553331 -0.006043839 0.0122060785 0.05670447 0.0073325518 -0.014226962
-0.008478817 0.00085787853 -0.008770986 0.004174213 0.01179166 -0.018032724 -0.013286364 -0.0063254517
0.021224622 -0.005850826 -0.016479352 -0.03580161 -0.016582854 0.031238487 -0.004585418 0.0007960697
-0.005085095 0.02305536 -0.017569968 0.038159557 -0.002168827 -0.0072785877 -0.018136827 0.018656017
-0.009777568 0.014752349 0.0009903801 -0.017878385 0.059937477 -0.0068025007 -0.006906609 0.032194532
0.0122150825 0.0053073233 -0.016120378 -0.006560325 0.1308543 -0.020353887 -0.023006419 -0.013331209
0.03658491 0.049951963 0.0049809017 -0.040428072 -0.0067976885 0.03604934 -0.025212308 0.007960477
-0.02384385 0.043744702 -0.00938612 -0.010533244 -0.0056736264 0.0013964716 -0.019734446 -0.017329192
0.08356525 -0.022824792 -0.006897027 0.035178885 -0.012771701 0.014667016 -0.039896462 -0.006335593
0.009965309 -0.006468093 0.0374099 0.07732855 0.0039299587 -0.11851187 -0.0061606653 -0.00681275
0.054893725 -0.013211168 0.0074230884 -0.006165618 -0.006174233 0.020150498 0.026045615 0.0011714047
-0.021359054 0.003629685 0.018293897 -0.10246336 -0.002433413 -0.0052117994 0.01283389 -0.061678544
-0.0060509685 -0.006465452 0.015800852 0.0027069778 0.000515223 0.004478658 -0.015748972 0.024935799
-0.01856814 -0.017710103 -0.0126102 0.0031851449 -0.010305552 0.026469493 0.00918916 0.010287645
-0.00683755 -0.008637718 -0.012929359 0.10330565 -0.011935456 -0.012714161 0.008035237 -0.020062424
-0.012059834 0.08180298 0.012894205 0.030273464 -0.0066613085 0.0138870105 -0.015349799 0.018769266
-0.005339842 0.05771447 0.009769948 0.013237147 0.0043017175 -0.018529613 0.08456601 -0.020980384
-0.026113667 -0.0039090626 -0.017295651 -0.0025019748 -0.0053984253 0.02143301 -0.006561158 -0.018829405
-0.00353673 0.096852265 0.009478399 -0.0062017324 -0.039376043 0.014261857 -0.0051852944 0.043768514
-0.007807971 0.015963405 -0.006582579 -0.005466496 -0.038884085 -0.0024247123 -0.0066699698 -0.021946987
-0.02330631 -0.0020002737 0.049546536 -0.067623466 -0.01665203 -0.0060006697 0.045186326 -0.0015006078
0.013244473 0.0009460189 -0.02898609 0.009684632 -0.02387114 -0.019443618 -0.016385024 0.0068661114
-0.006184577 -0.04712371 -0.0063582384 0.0031424877 -0.0084998105 -0.026247138 0.00054586877 -0.0151097225
-0.006118037 -0.001590067 -0.0005219077 -0.025149344 -0.00642934 0.011554398 -0.007290167 0.09654401
0.022102587 -0.018000906 0.0109411925 0.012498012 0.09353714 0.009477529 -0.02512477 0.024610328
-0.010874073 -0.011377495 6.612972e-05 0.0028470012 -0.0050371005 -0.015472631 0.0009733854 0.012096783
