load/solved-rnn-bg-easy-1/critic_layer_2_weights.npy (npy, 4128 bytes, 1 tensors)

array f4 [1000, 1]
00000000: 9b04 a03d c98f 83bd fc4d a43d 4445 85bd
00000010: eef0 84bd bd28 80bd 7c19 7ebd c72e a53d
00000020: 78d2 a43d 4e46 83bd f69a 84bd e6e0 83bd
00000030: 103a 80bd dd7a a43d 6c8e a23d f38a a23d
00000040: 02b0 a13d 1448 83bd 058d 8e3d 7a48 7ebd
00000050: 5764 a53d 930a 7fbd 86e0 83bd cd22 9d3d
00000060: d7ea a53d 56c5 83bd 4a7a 80bd d5f9 84bd
00000070: f008 6fbd b122 85bd ca92 a53d fc34 a63d
00000080: f964 84bd 0e5b 71bd 1590 a53d 3829 84bd
00000090: 50e1 a43d 6a29 83bd cb1a a33d b9ac 553d
000000a0: e8bb 963d 387d 84bd 2e83 80bd 455e a53d
000000b0: b115 84bd e964 83bd abb9 a43d d8b2 a33d
000000c0: 0a9b 1f3d c645 80bd eeaa 83bd 3f86 a43d
000000d0: 3bbf 83bd 0464 84bd 6112 9f3d 6d50 7ebd
000000e0: 5528 a33d 86c8 a13d c18e a33d 28fc 7dbd
000000f0: bb9c 84bd 9cf6 84bd 2f13 a43d 98ac a33d
00000100: 84fd 7fbd e0d2 7fbd 3a6d 80bd ac2a 84bd
00000110: cf12 7fbd c666 7fbd ecb8 9b3d 6463 81bd
00000120: 9587 bc3d 5575 a23d c7d2 a23d f22c 84bd
00000130: 66d6 83bd 85da a23d c49a a23d 2f8a 173d
00000140: a549 83bd b078 a23d c6dc 83bd 9259 83bd
00000150: caf7 6ebd c3b1 a33d b5fc a13d 484e 83bd
00000160: 6894 83bd 44c2 a33d 3567 b33d 392a a33d
00000170: e334 80bd 0b88 84bd 1929 85bd 5de3 a13d
00000180: 1f52 a33d 1354 84bd 0338 3a3d 4004 80bd
00000190: 1806 84bd db07 c93d cc2d 84bd b604 84bd
000001a0: 82be 84bd b51f a03d 80fa 77bd be5e 78bd
000001b0: 4527 7fbd 3320 84bd 6b07 84bd 596c 71bd
000001c0: c2dc a33d 782b 83bd 4609 a23d 5f9b a63d
000001d0: 7e9d 83bd cff7 84bd c971 7dbd 9edd a33d
000001e0: ac6c a53d 7782 a53d 3d85 7fbd 1de2 a33d
000001f0: bd39 84bd 8f77 80bd 1932 80bd d96f 83bd
00000200: 16e9 a43d 8918 743d 44e7 853d 914a 83bd
00000210: c7a4 7fbd d1cc 71bd 19e6 a23d 194b 84bd
00000220: c46f 84bd e911 7fbd 324c a43d b9b4 6fbd
00000230: 1128 a13d 1dbb 83bd d64d 84bd 3036 72bd
00000240: 881f a23d 5b65 80bd a48a 4d3d bc99 83bd
00000250: c18c 84bd 88b8 83bd 2d2f 85bd 76f7 003d
00000260: 2622 85bd bf16 83bd 7fca 83bd a456 7fbd
00000270: 9b23 b83d 795d a43d 48c6 84bd 8e0b 84bd
00000280: 3228 6d3d 5087 7fbd b707 72bd 92fb 7ebd
00000290: 8246 a53d 2376 83bd b5a3 a43d 68a4 84bd
000002a0: 12b9 84bd 458d a53d f9f8 903d e804 a53d
000002b0: 97cf a63d bf04 84bd f24d 7fbd d7bc 84bd
000002c0: 6744 67bd 27be a33d f995 f43c cbfe 923d
000002d0: de05 84bd 77e1 a53d 89eb a43d 47d3 a23d
000002e0: 4688 83bd 122b 9e3d 4de5 9d3d dbac a23d
000002f0: 5b47 a53d f07a 84bd ad7f a03d 751a 7abd
00000300: fb2a 83bd b3af a63d 951f 80bd 7048 83bd
00000310: d074 a53d 6604 a23d 8517 7ebd 1be5 563d
00000320: 4ae8 84bd abcf a33d 0a0c a63d e347 80bd
00000330: 724b a23d 601f a33d 8e5f a23d 5835 84bd
00000340: a377 83bd a885 a53d 0b71 063d cc47 bc3d
00000350: 2a92 7ebd 7702 70bd 770f a53d c916 a33d
00000360: 0fe5 83bd 9652 a33d 3684 a33d af4a 84bd
00000370: fe22 a23d 4747 84bd bc42 a63d 2723 a63d
00000380: bebd a13d ca8a a43d 3538 a33d 134f 933d
00000390: c89e a13d 3f30 83bd 1cb9 9e3d a69f af3d
000003a0: d805 a43d 633e a03d a8cc a23d 6047 84bd
000003b0: 1f30 a53d a956 a33d 4743 a23d ffbb 84bd
000003c0: c84e a23d 78b8 a23d 9084 9e3d e9d2 0f3d
000003d0: 0d8b 76bd 42af 80bd 0e27 a33d dc80 84bd
000003e0: 6620 85bd 6330 70bd 6f5a 6cbd 37fa a33d
000003f0: 8af7 71bd 515d 83bd e407 a43d 5eac 7fbd
0.078133784 -0.06423909 0.08022687 -0.06507352 -0.06491266 -0.0625777 -0.062036023 0.08065563
0.08047956 -0.06409894 -0.06474869 -0.0643938 -0.062610745 0.08031247 0.07937321 0.07936659
0.07894899 -0.06410232 0.06960491 -0.062080838 0.08075779 -0.062265944 -0.06439309 0.07672653
0.08101433 -0.06434123 -0.06273325 -0.06492964 -0.058358133 -0.065007575 0.080846384 0.08115575
-0.064645715 -0.058924727 0.08084122 -0.06453174 0.080507874 -0.064043835 0.07964095 0.052166674
0.07360059 -0.06469196 -0.062750205 0.08074621 -0.0644945 -0.064157315 0.08043226 0.07993096
0.038966216 -0.06263308 -0.064290866 0.08033418 -0.06432959 -0.06464389 0.077671774 -0.06208842
0.07966677 0.07899575 0.079862125 -0.062008053 -0.064752065 -0.064923495 0.080114715 0.07991904
-0.06249763 -0.062456965 -0.06270833 -0.064534515 -0.062273797 -0.06235387 0.076036304 -0.063177854
0.09205548 0.079325356 0.07950359 -0.06453885 -0.06437378 0.079518355 0.079396755 0.036997017
-0.06410531 0.079331756 -0.064385936 -0.064135686 -0.05834178 0.0799289 0.07909528 -0.06411415
-0.064247906 0.079960376 0.087599196 0.07967038 -0.06260087 -0.06471261 -0.065019794 0.07904694
0.07974648 -0.064613484 0.045463573 -0.062508106 -0.06446475 0.098159514 -0.064540476 -0.06446211
-0.06481649 0.07818548 -0.06054163 -0.06063723 -0.06229331 -0.06451454 -0.06446727 -0.05894122
0.080010906 -0.064047754 0.07911925 0.081351034 -0.064265236 -0.06492578 -0.061876092 0.080012545
0.08077368 0.08081525 -0.062382925 0.08002112 -0.06456325 -0.06272804 -0.06259555 -0.064178176
0.0805227 0.05959371 0.06538251 -0.06410707 -0.062413003 -0.05903322 0.07954044 -0.06459636
-0.0646663 -0.06227294 0.080223456 -0.05852196 0.0786897 -0.064321734 -0.064601585 -0.05913371
0.0791617 -0.06269332 0.050181046 -0.06425807 -0.06472159 -0.06431681 -0.06503139 0.031485997
-0.06500654 -0.06400823 -0.064351074 -0.062338486 0.08991166 0.08025641 -0.06483132 -0.064475164
0.05789966 -0.062384903 -0.05908939 -0.062251635 0.08070089 -0.06419017 0.08039037 -0.064766705
-0.06480612 0.08083586 0.07078738 0.080575764 0.08145063 -0.06446218 -0.062330194 -0.06481331
-0.056461718 0.07995253 0.029856669 0.07177504 -0.064464316 0.08099645 0.08052737 0.07950454
-0.064224765 0.07723059 0.07709751 0.07943126 0.080702506 -0.06468761 0.07836852 -0.061060388
-0.06404682 0.08138981 -0.06256024 -0.06410301 0.08078921 0.07910995 -0.06203415 0.052464586
-0.06489618 0.07998594 0.08107765 -0.06263711 0.07924546 0.07964969 0.07928382 -0.06455487
-0.06419303 0.080821335 0.03282265 0.09193382 -0.06215111 -0.0585961 0.0805959 0.0796333
-0.06440174 0.079747364 0.079842016 -0.06459557 0.079168305 -0.064589076 0.08118197 0.081121735
0.078975186 0.080342844 0.07969705 0.071928166 0.07891613 -0.064056866 0.077501506 0.085753724
0.08008927 0.07824399 0.07949191 -0.06458926 0.08065819 0.079755135 0.079229884 -0.0648117
0.079251826 0.07945341 0.07740128 0.03511325 -0.060191203 -0.06283428 0.079664335 -0.064698905
-0.0650032 -0.058639895 -0.05770343 0.08006709 -0.059073962 -0.06414283 0.080093175 -0.06242024
