load/solved-rnn-bg-easy-1/critic_layer_batch_norm_b_1.npy (npy, 4128 bytes, 1 tensors)

array f4 [1000]
000000 c1 11 da 3d e4 4b c8 bd 06 28 d4 3d 93 d8 c5 bd
       0.106479175 -0.097801 0.10359196 -0.09660449
000010 c7 65 c6 bd 18 e6 c9 bd 52 91 cb bd 2b f1 d3 3d
       -0.09687381 -0.0985834 -0.09939827 0.103487335
000020 ed 2c d3 3d 4a fb c7 bd 1b c9 c6 bd 09 bf c7 bd
       0.10311303 -0.097647265 -0.097063266 -0.09753234
000030 a3 4b c9 bd b6 97 d6 3d 41 6f d4 3d 22 e3 d6 3d
       -0.0982888 0.10478155 0.103727825 0.10492541
000040 80 3b d9 3d e3 1d c8 bd 8b de d6 3d 54 b3 c5 bd
       0.10607052 -0.097713254 0.104916655 -0.09653345
000050 df b0 d3 3d 9c 5a c6 bd 95 6d c7 bd 0c 6e db 3d
       0.1033647 -0.09685251 -0.09737698 0.10714349
000060 18 5d d6 3d d7 ec c7 bd 1e fa c9 bd d5 4c c6 bd
       0.10466975 -0.097619705 -0.09862159 -0.09682623
000070 3a 9e ce bd 92 4a c6 bd e9 f7 d5 3d 2f 51 d7 3d
       -0.10088773 -0.09682192 0.10447676 0.105135314
000080 70 2d c7 bd 6b 6a d1 bd 0d 67 d8 3d 9d 81 c7 bd
       -0.097254634 -0.10225376 0.105665304 -0.09741519
000090 51 c6 d5 3d 93 27 c8 bd f8 e1 d5 3d b6 a3 bf 3d
       0.104382165 -0.09773173 0.10443491 0.09357397
0000a0 4b 34 d9 3d ba 32 c7 bd 1c e4 ca bd 5d 36 d3 3d
       0.10605677 -0.09726472 -0.0990679 0.10313103
0000b0 4d 6a c7 bd 9f d0 c7 bd 8e f6 d5 3d 55 e2 d4 3d
       -0.09737072 -0.09756588 0.10447417 0.10394732
0000c0 b6 c7 e5 3d 99 7b cb bd 8d f7 c7 bd 58 db d3 3d
       0.112197325 -0.09935684 -0.097640134 0.10344571
0000d0 f1 72 c7 bd b2 3a c7 bd ca 00 db 3d d0 d8 c4 bd
       -0.0973872 -0.09727992 0.1069351 -0.09611666
0000e0 05 ca d5 3d 64 07 d7 3d a8 0b da 3d 94 67 c8 bd
       0.10438923 0.104994565 0.106467545 -0.09785381
0000f0 7f e5 c6 bd 4f 7b c6 bd 6f 52 d3 3d 25 3e d3 3d
       -0.09711742 -0.09691488 0.10318457 0.103145875
000100 dd a5 c7 bd 08 1a c9 bd 7b 9d ca bd 1e 55 c7 bd
       -0.09748433 -0.09819418 -0.09893318 -0.09733032
000110 77 ea c6 bd 81 cd c6 bd 5d 09 de 3d 99 6a c9 bd
       -0.09712689 -0.097071655 0.1084163 -0.09834785
000120 24 85 de 3d 9e 22 d4 3d e8 a4 d9 3d 88 8f c7 bd
       0.10865238 0.10358165 0.106271565 -0.09744173
000130 c3 fe c7 bd 6b 1a da 3d 0e 19 d7 3d 57 a6 ca 3d
       -0.09765389 0.1064957 0.10502826 0.09895008
000140 91 c5 c7 bd 15 53 d9 3d e5 be c7 bd 0b 1d c8 bd
       -0.0975448 0.1061155 -0.09753207 -0.097711645
000150 3e 83 d1 bd 8e 63 d7 3d 7c 3f d9 3d 97 fb c7 bd
       -0.102301106 0.105170354 0.10607812 -0.09764784
000160 a0 c4 c7 bd 0d f0 d8 3d 6b bf dd 3d dc ba db 3d
       -0.097543 0.10592661 0.10827526 0.10729
000170 52 50 ca bd e8 b8 c6 bd 35 00 c6 bd be 65 d4 3d
       -0.09878601 -0.09703237 -0.09668008 0.10370968
000180 81 ec d3 3d dc 1f c7 bd a5 ff f3 3d 57 d9 c5 bd
       0.10347844 -0.097228736 0.11913995 -0.09660595
000190 ea c1 c7 bd 18 42 e7 3d f2 20 c8 bd e2 4d c7 bd
       -0.09753783 0.11291903 -0.09771909 -0.09731652
0001a0 46 9f c6 bd b2 77 d8 3d cf ce ce bd cd 70 d0 bd
       -0.09698348 0.10569705 -0.10098039 -0.10177765
0001b0 d2 35 c4 bd 6c 1e c7 bd ea 43 c7 bd fc 4c cd bd
       -0.09580578 -0.097225994 -0.097297505 -0.10024449
0001c0 95 ee d5 3d cc ee c7 bd 21 04 d9 3d fc 36 d6 3d
       0.104458965 -0.09762344 0.10596491 0.10459706
0001d0 4d c2 c7 bd 36 56 c6 bd ee b5 c3 bd c0 61 d4 3d
       -0.09753857 -0.09684412 -0.09556185 0.10370207
0001e0 4d 46 d8 3d 59 6a d6 3d c3 c4 c7 bd 25 f2 d5 3d
       0.10560284 0.10469503 -0.09754326 0.10446576
0001f0 da 60 c7 bd f2 27 cb bd 0c 5e c9 bd de 3c c8 bd
       -0.0973527 -0.09919728 -0.09832391 -0.097772345
000200 61 4a d4 3d f5 d8 de 3d d6 a6 ce 3d c5 1e c8 bd
       0.10365749 0.10881225 0.10090415 -0.09771494
000210 32 9e c8 bd d8 09 cc bd 9a 08 d4 3d 73 25 c7 bd
       -0.09795798 -0.09962815 0.10353203 -0.0972394
000220 01 ff c6 bd 4c b4 c7 bd 67 7c d4 3d 70 4f d0 bd
       -0.09716607 -0.09751186 0.1037529 -0.101714015
000230 40 48 d9 3d c2 8d c7 bd 5f ca c6 bd e8 97 cb bd
       0.10609484 -0.09743835 -0.09706568 -0.09941083
000240 a7 7c d9 3d e5 ea ca bd a6 28 e9 3d 5c c1 c7 bd
       0.10619479 -0.09908084 0.11384706 -0.09753677
000250 13 d6 c6 bd 86 87 c7 bd 9b 72 c6 bd 69 d4 e5 3d
       -0.097088 -0.09742646 -0.09689828 0.11222155
000260 56 04 c6 bd 96 63 c8 bd 41 88 c7 bd df c9 c6 bd
       -0.09668796 -0.097846195 -0.09742785 -0.097064726
000270 d6 14 d5 3d c3 8c d5 3d 49 91 c6 bd cf 36 c8 bd
       0.10404365 0.10427239 -0.0969568 -0.09776079
000280 13 b7 ed 3d d4 af c8 bd 42 76 d0 bd 7d d0 c8 bd
       0.11607184 -0.097991616 -0.10178806 -0.09805391
000290 38 95 d8 3d 50 55 c8 bd 21 68 d3 3d e4 a4 c6 bd
       0.10575336 -0.09781897 0.103225954 -0.09699419
0002a0 76 c9 c8 bd 43 53 d4 3d 20 32 dd 3d d6 27 da 3d
       -0.098040506 0.103674434 0.10800576 0.10652129
0002b0 df 02 d7 3d 27 55 c7 bd 62 0e c7 bd 9b 94 c6 bd
       0.104985945 -0.097330384 -0.0971954 -0.09696313
0002c0 37 0a dc bd d1 03 d6 3d 04 c2 c3 3d d8 6a dd 3d
       -0.10744136 0.10449947 0.0955849 0.108113945
0002d0 c0 1b c7 bd 73 1b d4 3d c3 2c d6 3d 51 f4 d8 3d
       -0.0972209 0.10356798 0.10457756 0.10593475
0002e0 18 b5 c7 bd e0 80 d3 3d 76 85 d2 3d 43 e8 d6 3d
       -0.09751338 0.10327315 0.10279362 0.10493519
0002f0 f4 b5 d7 3d 51 4e c7 bd 28 27 db 3d c2 f2 cd bd
       0.10532752 -0.097317345 0.10700828 -0.10056068
000300 28 25 c8 bd 4b e7 cf 3d 91 62 c8 bd 47 4f c8 bd
       -0.09772712 0.101515375 -0.09784425 -0.09780746
000310 24 87 d5 3d 8a 15 da 3d d8 13 c4 bd 4f 88 e0 3d
       0.10426167 0.106486395 -0.095740974 0.10963499
000320 d3 6b c6 bd 4a 7a d3 3d 3c 1b d6 3d e2 e2 c7 bd
       -0.096885346 0.10326059 0.10454413 -0.09760071
000330 ca 59 d4 3d 50 4e d9 3d 87 95 d8 3d 2b 3a c7 bd
       0.103686884 0.1061064 0.10575395 -0.097278915
000340 f1 af c7 bd 83 f9 d4 3d 8e a6 e2 3d 1b e9 de 3d
       -0.09750355 0.10399153 0.11066924 0.10884305
000350 48 09 c7 bd 36 a1 cf bd ca df d5 3d 98 e3 d5 3d
       -0.09718567 -0.101381704 0.10443075 0.10443801
000360 27 90 c7 bd 10 2d d9 3d 0c 2d da 3d 7f 15 c7 bd
       -0.09744292 0.10604298 0.10653123 -0.09720897
000370 af 1c d9 3d 81 4f c7 bd bf 93 d6 3d 38 03 d6 3d
       0.10601174 -0.09731961 0.10477399 0.10449833
000380 34 0e da 3d a1 5a d5 3d fc bb d5 3d d7 bc d7 3d
       0.1064724 0.10417677 0.10436246 0.10534065
000390 9b a0 d7 3d 1b 05 c8 bd 6a f8 dc 3d 1c 65 d4 3d
       0.1052868 -0.09766599 0.10789569 0.103708476
0003a0 a9 0d d5 3d 48 f2 d9 3d ef ce da 3d fc 02 c8 bd
       0.10402996 0.106419146 0.10684001 -0.09766194
0003b0 43 93 d5 3d a7 5b da 3d fa b7 d8 3d d8 47 c7 bd
       0.104284786 0.106620125 0.10581966 -0.097305
0003c0 16 75 d9 3d 2c 48 d9 3d 44 d6 d2 3d 81 07 e5 3d
       0.106180355 0.10609469 0.10294774 0.11183072
0003d0 c1 18 cf bd a0 ed ca bd 15 61 d9 3d ba 39 c7 bd
       -0.10112143 -0.099086046 0.1061422 -0.09727807
0003e0 ff 55 c6 bd de f1 cf bd 3c 20 d8 bd b7 7a d7 3d
       -0.09684371 -0.101535544 -0.10553023 0.10521453
0003f0 7e d2 d1 bd c7 43 c8 bd c5 04 d5 3d bb 16 c5 bd
       -0.10245226 -0.097785525 0.104013 -0.09623476
