load/solved-rapidly-0.02-interpolated/bs_layer_0_weights.npy (npy, 36128 bytes, 1 tensors)

array f4 [9, 1000]
000000 b4 61 9e 3d 6e f9 a7 bd c6 5a 7d bb 95 90 21 3b
       0.07733479 -0.08201872 -0.0038658842 0.0024652828
000010 cb b2 ea 3c 08 71 3f 3d c7 f9 63 3d ce d7 2c bd
       0.028649708 0.046738654 0.055658128 -0.042197995
000020 79 25 1e 3e cb 17 b8 3c ae a9 2f bd 91 1f 9c 3c
       0.15443982 0.022472283 -0.04288643 0.01905802
000030 1e cf 59 bd 20 22 5c 3d 8c d3 29 bd ac ea c3 bc
       -0.053176038 0.05374348 -0.041461512 -0.023915611
000040 ce 5b db 3c 20 b6 93 bb 7f 23 85 3d e0 ac 55 3c
       0.026777174 -0.004507795 0.06500911 0.013041705
000050 bf 8b 14 3e 5a 7f 8c 3b 97 67 aa 3d 93 d5 9a bc
       0.14506434 0.0042876424 0.083205394 -0.018900668
000060 97 c0 89 3c ac a3 e4 3c d0 e4 94 bd f0 82 2c 3e
       0.016815467 0.027910076 -0.07270205 0.16846824
000070 00 29 a8 3d 35 26 67 3b 4b 5a 74 ba 9e 3c 4d 3e
       0.08210945 0.0035270576 -0.0009321316 0.20042655
000080 4d eb 34 3e 0a df 92 3b 0a cf 96 3b 72 5e 27 3e
       0.17667885 0.0044821547 0.0046023177 0.16344622
000090 5b 58 bb bd 35 2e ed 3b 3e b5 a8 3d e0 ae 13 3e
       -0.09147712 0.0072381743 0.08237694 0.14422178
0000a0 36 e9 03 3d 62 87 f4 bc 6e 39 18 3b 10 f4 8d bb
       0.03220483 -0.029849712 0.002322759 -0.004332073
0000b0 49 29 b5 bd 50 94 20 3c fa 32 37 3e 5a 36 87 bc
       -0.08845765 0.009800985 0.1789054 -0.016505409
0000c0 a5 a7 7c bb ab 6f 52 3c 99 05 08 3d ce f6 65 ba
       -0.0038552072 0.0128440065 0.033208463 -0.00087724335
0000d0 86 21 4e bd 44 5b 70 3d e3 34 f7 3d bf a7 3b bd
       -0.05032494 0.058680788 0.12070634 -0.045814272
0000e0 3a d9 ca 3d 55 46 2d bd 65 80 ca bc 47 7d 7c 3c
       0.09904714 -0.042303402 -0.024719426 0.015410728
0000f0 15 0c 96 bd 4b bf 5e bc df d2 d4 3d 49 84 73 3c
       -0.07326523 -0.0135954125 0.10391783 0.014863082
000100 65 97 99 3d 0e 3b 93 3d 55 ae cb 3d 07 53 9b bd
       0.07499579 0.07188998 0.099453606 -0.075841956
000110 d1 9c a1 bc 73 79 5e 3d 4b 02 1f 3d 75 60 c8 3b
       -0.019728096 0.05431504 0.038820546 0.006115014
000120 38 d7 91 3d b2 f4 50 3d a8 e4 dc 3d b3 91 fe 3c
       0.07121128 0.05101461 0.107858 0.031075334
000130 9b 83 93 bd e7 41 45 3e e0 af 2c bd 8a c2 01 bc
       -0.07202836 0.19263421 -0.042159915 -0.007919917
000140 99 6c 83 3d fe ab 08 3d ae 9d b8 bc 3e 4c 2e bc
       0.06417198 0.03336715 -0.022536125 -0.010638295
000150 71 8b 71 3b ba f4 47 3c 4e 4c a4 3d c8 bd 62 bd
       0.0036856795 0.012204343 0.080223665 -0.05535677
000160 c4 c7 59 3d 44 ec 6d ba 3d 48 03 3e 97 9b 9d bd
       0.053169027 -0.0009076039 0.12820525 -0.07695692
000170 d8 65 73 ba 34 17 1e 3e 6f 8d 89 3d ab 83 8d 3c
       -0.000928489 0.15438539 0.067164294 0.017274698
000180 ef 05 f7 bd 56 52 ad 3d 0a 63 b7 3d 13 8a bf bd
       -0.120616786 0.0846297 0.08954437 -0.093525074
000190 92 cb 93 3d ee 34 8e 3d a9 f8 b0 bd ee 11 6f bd
       0.07216562 0.06943689 -0.08641178 -0.05836671
0001a0 91 11 4b 3e 87 76 a1 3d 15 e3 97 3d 14 4d 3f bc
       0.1983092 0.078839354 0.07416359 -0.011676092
0001b0 ef 69 94 3d 47 75 13 3a 08 59 86 3c 40 c0 ab 3d
       0.07246768 0.00056250807 0.016399875 0.08386278
0001c0 ad 45 1e 3e b9 28 1a bd f1 06 5a bc bf 02 da bd
       0.15456267 -0.037636492 -0.013307319 -0.10645055
0001d0 c0 cb c8 bb 49 11 28 3d 36 e8 55 3d ae 4d 13 bd
       -0.0061278045 0.04103211 0.052223407 -0.035962753
0001e0 97 80 d4 ba e0 40 38 bc 3e 4a 32 3d c2 59 f4 3c
       -0.0016212639 -0.011245936 0.043527834 0.029827956
0001f0 03 e1 02 3e 99 ac b4 3c c5 2e 24 ba 6b c8 72 bc
       0.12781148 0.022054957 -0.0006263073 -0.014818291
000200 ed d2 02 bd cd ad 3b bc 28 9e 80 bd 6b 52 da 3d
       -0.031939436 -0.011455012 -0.06280166 0.10660251
000210 ab e2 96 3c 61 47 ae bd 43 79 dc bc 7e ed b7 ba
       0.01841863 -0.08509708 -0.02691329 -0.001403257
000220 9d 46 28 3d 87 f2 6d 3d 76 1a 89 3d 39 a4 d0 3d
       0.041082967 0.05809262 0.066945 0.10187573
000230 1d dc c3 3d 19 16 f5 bb 28 68 62 3c f3 4a 0e be
       0.09563468 -0.007479441 0.013818778 -0.13895778
000240 bb 3d ab 3c 31 6d 0b be 87 2c 93 3b 51 7e b0 bb
       0.020903459 -0.13615872 0.004491392 -0.005386152
000250 16 a8 2a 3e 87 66 9a bb 55 e1 fb 3d 42 90 d1 bc
       0.16665682 -0.0047119292 0.12298838 -0.025581483
000260 50 26 86 3d 52 07 de 3d c2 a2 12 3b da 96 05 3e
       0.06550276 0.1084124 0.0022374843 0.13045827
000270 6b 16 be bd e3 ba 59 bd 89 89 c5 3d ca ce 8e 3c
       -0.0928162 -0.053156745 0.096453734 0.01743259
000280 64 17 95 bd d2 86 b9 bd 32 32 6e 3c 25 0f f5 bd
       -0.07279852 -0.09058918 0.014538335 -0.11965779
000290 cc 96 20 ba cb 9b d4 bc 1d 83 31 3d 3c 68 13 bd
       -0.0006125986 -0.025953194 0.04333793 -0.035988078
0002a0 bd 80 d4 bc 80 59 23 3d f6 d9 51 bd 76 4d a7 3d
       -0.025940293 0.039880276 -0.051233254 0.081690714
0002b0 4f 69 54 bb be 26 0c bc 73 2b a5 3c 54 00 7e 3d
       -0.0032411402 -0.008554159 0.02016232 0.06201203
0002c0 6b df 22 bb 14 a9 c6 3d e9 1b 01 3e 08 dc f2 bc
       -0.0024852406 0.09700218 0.12608303 -0.029645935
0002d0 ee b4 09 bd c2 84 20 bc e2 41 e3 3d 92 53 57 bd
       -0.033619814 -0.009797277 0.110965505 -0.052569933
0002e0 7b d8 a5 3d 71 a0 de 3d dd a3 6c bc eb a9 4e 3d
       0.08097931 0.108704455 -0.014443365 0.050455015
0002f0 54 77 f0 3c 51 1b 44 3e 0a 0a f1 3d fc 07 02 bb
       0.029353775 0.19151045 0.11769493 -0.0019841185
000300 34 4c 92 bd d6 e0 42 3d 4a 5a 8b bd bd cc d7 bb
       -0.07143441 0.0475777 -0.06804331 -0.006585686
000310 af f4 53 3d 19 20 f1 bd ba 47 ee bd 63 fb f9 bc
       0.05174702 -0.117737 -0.116347745 -0.030515378
000320 02 1a dc 3d b7 eb 61 3d 4f dc 5f bd 56 e8 9f 3d
       0.10747148 0.055156436 -0.054653462 0.078079864
000330 b3 30 55 3c ff 68 a8 3d 53 ff b0 bd 16 ce a0 3a
       0.013012099 0.082231514 -0.08642449 0.001226845
000340 56 43 24 3d a1 1c bd 3d 6d cc b5 bd fc 06 18 3d
       0.04010328 0.09233976 -0.08876882 0.037116036
000350 c7 a8 1f bd e1 22 c6 b9 f7 2e d0 3c 27 c0 a1 bd
       -0.038979318 -0.0003779149 0.02541302 -0.07897978
000360 0e da 5d 3c 4b f7 87 bc a2 c1 79 3d 25 d1 69 3e
       0.013540758 -0.01659741 0.06097568 0.22833689
000370 76 d7 78 bd 60 46 1b bd b0 ca 66 3d 4a 1e 06 bc
       -0.060752355 -0.03790891 0.05634564 -0.008185932
000380 6e cd 99 bc f6 cf 81 3d 23 13 fe 3a d0 f2 61 3d
       -0.018774714 0.063384935 0.0019384365 0.055163205
000390 4e c1 9f 3d c5 ab b0 bc 09 ff 22 3d 24 e5 9d 3d
       0.07800542 -0.021566281 0.039794 0.07709721
0003a0 c9 e0 33 3d 2d 38 db bd 31 36 40 bd 1a 08 55 3e
       0.043915544 -0.10704074 -0.04692668 0.20803872
0003b0 eb e5 8f 3c e3 b6 3d 3e 89 be 48 bd d0 00 a9 bc
       0.017565688 0.18526797 -0.049009833 -0.02063027
0003c0 18 20 83 b9 f4 b0 69 3c 15 c2 96 3d c5 fa 9f bd
       -0.0002501018 0.01426338 0.07361237 -0.07811502
0003d0 a3 5d bc bb 45 b8 82 ba 0a 38 17 bd 52 17 d0 bb
       -0.005748467 -0.000997313 -0.036918677 -0.0063504362
0003e0 82 44 8f bb 38 73 ff bb ca c3 86 3d 61 79 e5 3c
       -0.0043721804 -0.0077957176 0.065803126 0.02801198
0003f0 3e 1c c4 3d da a3 0f 3d 10 d1 8d bb 22 f0 87 3d
       0.09575699 0.03506837 -0.0043279007 0.066375986
