load/solved-rapidly-0.02-interpolated/bs_layer_1_biases.npy (npy, 4128 bytes, 1 tensors)

array f4 [1000]
000000 21 d3 a3 3e f6 00 ce bd da 74 82 3d ef 31 86 bc
       0.31997016 -0.10058777 0.06369944 -0.016381232
000010 c0 c2 5d 3e 61 20 45 bd 31 ef 4e 3e 6a cf 01 3e
       0.21656322 -0.048126582 0.20208432 0.12676778
000020 ff b9 56 be 72 f3 97 3e 53 43 4e bd 22 bd c6 bd
       -0.2096939 0.29677922 -0.050357174 -0.09704043
000030 d1 4e ee 3d 2f 53 e2 3d 6c f4 47 bd ec b1 51 bd
       0.11636127 0.11051022 -0.048817083 -0.05119507
000040 0e d2 9d bd 3a d2 ad bc 77 40 3d 3e e9 22 6b 3e
       -0.077060804 -0.021218408 0.18481623 0.22962536
000050 0c da 7f 3d bf 50 2b be ae 74 c8 3c ba f3 59 bd
       0.062463805 -0.16730021 0.0244697 -0.05321095
000060 27 88 29 3d 29 62 14 be 5d 24 22 3e 4a 36 e5 3d
       0.04138961 -0.1449057 0.15834184 0.111919954
000070 c2 b2 0d bd ed 26 66 bc 98 19 35 3d 4a 24 66 bd
       -0.034594305 -0.014047367 0.04421386 -0.05618695
000080 e5 e0 a2 3b 72 df 41 3b 0a f9 f4 3d 3e d8 15 3e
       0.004970657 0.0029582647 0.11961563 0.14633271
000090 66 ab 29 3e 7a af 34 bd 49 76 5b bd c0 c3 f3 bd
       0.1656929 -0.04411266 -0.053579602 -0.11902571
0000a0 e0 02 8b bd da b6 07 be 60 66 91 bd 74 1d b9 bd
       -0.06787658 -0.13253346 -0.070996046 -0.09038821
0000b0 95 52 49 bb 61 4a 11 be e0 cd 2c 3b 31 3c 13 bd
       -0.0030719389 -0.1418853 0.0026367828 -0.035946075
0000c0 ce 12 d2 bd f7 ca 91 bd 7f 01 5d bd 28 18 e4 3d
       -0.10257493 -0.071187906 -0.053956505 0.1113742
0000d0 a4 03 3e 3e f2 2d 9a bd ae 7f 8d bc 3b 5a 15 bd
       0.18556076 -0.075282946 -0.017272796 -0.036463004
0000e0 f9 8e 09 be 46 13 ab 3d e9 2b b8 3c 83 5a a0 3e
       -0.13433446 0.083532855 0.022481875 0.31319055
0000f0 57 1b 1a 3b 52 58 2a bc 82 f2 29 bd 09 94 65 3e
       0.002351483 -0.010397034 -0.04149104 0.22419752
000100 82 3d 27 be 50 81 8e 3e 5c 85 00 bd 4b 99 98 bd
       -0.16332057 0.27833033 -0.03137718 -0.07451113
000110 90 45 81 bd 5e b1 51 bd ed ff 48 bc 24 d7 62 bc
       -0.06312096 -0.05119454 -0.012268049 -0.013845239
000120 e5 2e e7 bd 6b 6b a1 3d a6 4a d8 3d 2a 94 2e bd
       -0.11288241 0.078818165 0.10561113 -0.04262177
000130 b1 54 cd bc 5b ed 0f be a0 fb ea 3c 81 42 ca bc
       -0.025064798 -0.14055388 0.028684437 -0.024689915
000140 42 04 93 3b b1 80 33 bc 6a b4 e7 bc 49 fd 77 3e
       0.0044865916 -0.010955975 -0.02828427 0.24217714
000150 57 75 49 bd 48 23 e0 3d cd 87 3f be bf ee 95 3e
       -0.04918417 0.10944229 -0.18704148 0.2928371
000160 67 49 61 3d 7f a8 5c 3e 6c 1d 17 be f1 04 55 bd
       0.055001643 0.21548651 -0.14757317 -0.052006666
000170 30 87 91 3e db 6d 96 3e c2 fb b3 bd 6d 9e 60 be
       0.28423452 0.29380688 -0.08788253 -0.21935435
000180 03 6e 82 3e ee 0a 0c be c8 db cc 3c fa 46 7d 3e
       0.25474557 -0.13676044 0.025007144 0.24734107
000190 7a e6 f7 bd 1c b5 c2 bc 3a da 1e be f0 d5 86 3e
       -0.12104507 -0.023768 -0.15512934 0.26335096
0001a0 f2 47 9a bd a8 ca a6 3e 76 df 0b be cf 9b 4a 3d
       -0.07533254 0.3257649 -0.13659462 0.049464997
0001b0 99 e0 91 bd 21 25 8d 3e 81 0c 13 be 82 5b fd bd
       -0.07122917 0.2756739 -0.14360239 -0.12370969
0001c0 fb e4 a2 bd fc 89 8d 3d 71 d1 47 3e a0 22 16 3e
       -0.07953831 0.06911084 0.1951349 0.14661646
0001d0 19 03 ed 3d 56 80 50 be ec 0f 4b bd 7c c9 4b 3e
       0.115728565 -0.20361456 -0.04957573 0.19901079
0001e0 59 69 2a 3e 7f b7 03 be 8c 5e a3 bd a0 ff a7 bc
       0.1664175 -0.12862967 -0.07977018 -0.020507634
0001f0 7b 35 ff 3d db d8 ad bd 38 e5 27 be 71 c5 43 3b
       0.124613725 -0.084886275 -0.16396034 0.0029872323
000200 ab fc f0 3d 45 d9 93 3e eb 1e 6b 3d 87 bd 59 3e
       0.117669426 0.288767 0.057402533 0.21263705
000210 a5 a6 97 3e e3 a5 a7 bd c0 1e b6 3d 16 77 90 3c
       0.29619327 -0.08185937 0.08892584 0.01763491
000220 e1 4c 23 3e 7b 18 0c bd 91 86 6a 3e c2 8a af 3d
       0.15947296 -0.034203034 0.22902896 0.08571388
000230 0f 32 3e bd f5 76 9e 3e 88 81 91 3e 8e 2c ce bc
       -0.04643446 0.30950132 0.28419137 -0.02516773
000240 c1 75 48 bd 31 c6 83 3e b1 d4 93 3e 4d 67 a1 3e
       -0.048940424 0.25737146 0.28873208 0.31524125
000250 e0 52 12 bd 7c 4e 41 be 5e 43 5e 3d 66 1c d1 3d
       -0.035723567 -0.18877596 0.054263465 0.10210495
000260 b6 41 86 3e 16 19 23 3d f3 1c f3 3c 20 3a f7 3a
       0.26222008 0.039818846 0.02967689 0.0018861927
000270 d1 4d 3c 3e 0b 0e 40 3e ee 15 d9 3d 05 78 15 3e
       0.1838906 0.18755357 0.10599886 0.14596565
000280 b9 43 d1 bd 3a fc 58 3d c7 38 66 3e a7 94 d7 bc
       -0.10217995 0.052974917 0.22482596 -0.026316
000290 ac 64 2b be bd fe 9c 3e ee fe 60 3d ed 23 95 bd
       -0.16737622 0.306631 0.05493062 -0.07282243
0002a0 dc 7c 05 be b4 8a 67 3d 4c 49 52 3e 83 ac 09 3e
       -0.13035911 0.056528762 0.20535773 0.13444714
0002b0 ab 44 13 3d a1 fb dd 3b c5 bb a5 3d 6a a0 95 3b
       0.03595416 0.0067743813 0.08092455 0.004566242
0002c0 25 81 4c 3e 0d e2 6f bd 91 6a 75 3e fc 7a 0f 3d
       0.1997114 -0.05856519 0.23966433 0.035029396
0002d0 13 c2 09 3d 53 e4 85 3c 2e 9d be bd 36 30 14 be
       0.03363235 0.016344225 -0.093073234 -0.14471516
0002e0 13 31 8e 3c 27 30 37 3e 56 81 95 3e 9c 2f f0 bd
       0.017357385 0.17889462 0.29200238 -0.11727831
0002f0 93 49 c6 3c 53 3f 72 be 26 67 63 3d 56 5d 75 3d
       0.024205005 -0.23656969 0.055518292 0.059903465
000300 23 4b 28 3a 91 33 14 bd 9a e8 8e bd 14 dd 63 3d
       0.00064198876 -0.03618199 -0.06977959 0.05563076
000310 72 b1 9c 3e 1d 48 d8 3d a2 01 38 3b 3b 3b 96 3d
       0.3060413 0.105606295 0.0028077145 0.07335516
000320 83 1c a0 bd 9c c3 59 3b 3f 26 60 bd c0 13 37 bd
       -0.07817938 0.0033228165 -0.054723974 -0.04469657
000330 7c 9d 39 be ac d9 b0 3c 93 4f d6 3d dd 52 10 3d
       -0.18126482 0.021588169 0.10464396 0.035235275
000340 c9 4e 24 3e 9e aa 00 3d 26 3f ed 3c dc 15 9b 3d
       0.16045679 0.031412713 0.028960776 0.07572529
000350 69 9a 23 3e 95 69 79 bd fb cf f0 bc 8f 7d 8e bc
       0.15976872 -0.060891706 -0.029396048 -0.017393855
000360 b1 2f 8e 3c 88 bc d6 ba 0f ee ea 3d 20 d7 f5 3c
       0.017356725 -0.0016383091 0.11471187 0.030009806
000370 71 2a 89 3e 1e e6 d8 3d a4 56 70 be a6 eb 38 3e
       0.26790193 0.10590766 -0.23470551 0.18058643
000380 ea 75 a5 bd 39 a9 74 3d d0 4e ee 3d 6a bf 96 bb
       -0.08079131 0.059731696 0.11636126 -0.004600455
000390 cd 58 a7 3e 12 71 91 bd c0 1f a6 3e e6 a8 de bd
       0.32684937 -0.071016446 0.32446098 -0.108720586
0003a0 e5 12 a5 3d 1a 07 f0 3d 02 5b 5e 3c 8f 9c 0b 3c
       0.080602445 0.117201045 0.013571503 0.008521213
0003b0 b4 1f 89 bc 8a 21 48 be 3b 7d 4f be 3f 45 24 3e
       -0.01673875 -0.19544044 -0.20262615 0.1604204
0003c0 62 b7 a5 bd 21 24 70 3d c7 c3 80 bd 92 81 57 3e
       -0.08091618 0.058628205 -0.062873416 0.21045521
0003d0 34 8e 4e 3e 35 1d ab 3e 93 4d a4 3e cd 20 24 3e
       0.20171434 0.3342072 0.32090434 0.16028138
0003e0 c6 cf cb 3a ff 6c 1d be a4 8f dc 3c 90 e6 08 be
       0.0015549592 -0.1537361 0.026923962 -0.13369203
0003f0 3c 79 24 be e0 c1 9f 3d e3 03 21 3d c4 32 99 3e
       -0.16061872 0.078006506 0.039310347 0.29921544
