load/solved-rapidly-0.02-interpolated/bs_layer_batch_norm_a_1.npy (npy, 4128 bytes, 1 tensors)

array f4 [1000]
-0.043849904 0.03135826 0.17414151 0.014614042 0.01762829 0.045277935 0.12373991 -0.08741191
-0.047558572 0.3127155 -0.0537652 -0.009659193 -0.008459391 -0.1674239 -0.092862524 -0.15569854
0.024676885 0.39207694 0.0454178 0.027440673 -0.07897722 -0.12522332 0.009952134 -0.08178324
-0.16902612 -0.018884549 0.04416306 -0.20928515 -0.1569096 0.14481844 0.39759192 -0.28629372
-0.23101346 0.013994838 0.43376285 -0.25472498 -0.24397935 0.07478972 0.0006189041 -0.11408127
0.020130424 -0.11441384 0.09102664 0.0237659 -0.13867226 -0.043438267 -0.24432583 0.02292736
0.10733814 -0.21028748 -0.023118226 0.39485925 -0.097267926 -0.2011136 -0.14760374 -0.09394246
0.029270856 0.074945405 0.1779007 0.048759762 -0.12154219 -0.091976464 0.16226536 0.19437331
-0.068259284 -0.058320817 0.22839737 -0.0037245788 -0.10557538 -0.121638134 0.05812841 0.090730794
0.14375511 -0.004730146 0.008232041 0.11701683 -0.22637574 -0.24013495 -0.034048185 -0.13957092
-0.11817129 0.13832574 -0.11162954 -0.15239511 0.0028079846 -0.027094424 -0.15299933 -0.018547634
-0.14757581 0.36476415 -0.058048032 0.033985525 -0.37833259 -0.16427769 0.060088433 -0.03970331
-0.31483123 0.04239726 0.2669788 -0.09237079 0.056425903 -0.10290486 -0.11601316 -0.059964653
-0.08809614 0.0012855036 -0.20786542 -0.1061774 -0.05790072 -0.4036306 -0.12840663 0.036849618
-0.2067382 0.18761143 -0.03938527 0.15085761 -0.30857247 0.033743206 0.011438053 0.103478566
0.07295086 -0.19480191 0.1346534 -0.17389923 0.103778996 0.18687667 0.029470198 0.07342445
-0.31963536 0.03944351 -0.17274792 -0.065751456 -0.14839594 -0.101095654 -0.12771443 0.23917252
-0.033706177 -0.17042506 0.0078017055 -0.1768602 -0.062245235 0.19884764 0.020211257 -0.06528723
0.2763282 0.0132027855 0.049040012 -0.2632639 -0.0679585 0.14373551 -0.19820674 0.06967437
-0.09751292 -0.07010762 0.07416083 -0.2353628 -0.17143399 0.22003049 -0.08612216 0.19009191
0.11551459 -0.06511053 0.01156299 -0.10148104 -0.38668734 -0.053405013 -0.016460896 -0.31544825
-0.10239633 0.027051227 0.08665731 -0.14270073 0.408852 -0.13481627 -0.04610709 -0.054741453
-0.16003266 0.13630506 0.014163233 0.12347572 0.0654966 -0.15638891 0.15862584 -0.12944649
-0.019631295 -0.0038895821 -0.03701737 -0.12437883 0.020623341 -0.21418108 -0.14976645 -0.09653411
0.04620965 -0.11422625 -0.15140778 0.40838155 -0.30847788 -0.068848506 -0.2003622 0.1735776
0.118363574 0.069674134 -0.16212793 -0.1527177 -0.016026014 0.15873212 -0.20328905 0.05346152
-0.06668256 0.007835192 -0.13979726 0.00021672159 -0.031906202 0.0100296885 0.12770884 -0.1386838
-0.039476085 0.4161102 0.2234128 -0.26619112 -0.13315012 -0.36044168 0.017753841 0.21905272
0.1875183 -0.0449331 0.22151713 -0.1331889 -0.08527293 -0.00296706 0.026341787 0.029734349
-0.0980777 -0.112240866 -0.18956065 -0.25333726 -0.115015864 -0.2898544 -0.089086406 -0.12284303
-0.38702628 0.0009090832 0.05680437 -0.052887205 -0.36269614 0.3937279 0.20300017 -0.41195258
-0.26969358 -0.11316947 0.04193117 0.0248518 -0.088825345 0.3045846 0.030967288 -0.06072807
00000000: f59b 33bd 8571 003d 2752 323e bc6f 6f3c
00000010: 3469 903c 5b75 393d 5a6b fd3d 0405 b3bd
00000020: c7cc 42bd 3f1c a03e e638 5cbd 9841 1ebc
00000030: 4299 0abc 2c71 2bbe b52e bebd 706f 1fbe
00000040: 2e27 ca3c 4fbe c83e 0408 3a3d 43cb e03c
00000050: cfbe a1bd 8b3a 00be 470e 233c f97d a7bd
00000060: 2f15 2dbe c5b3 9abc 53e4 343d d94e 56be
00000070: e9ac 20be 494b 143e 2b91 cb3e 1795 92be
00000080: cb8e 6cbe 9b4a 653c 2a16 de3e 506b 82be
00000090: b9d5 79be 5a2b 993d f33d 223a 71a3 e9bd
000000a0: 8fe8 a43c ce51 eabd 2d6c ba3d b4b0 c23c
000000b0: 1a00 0ebe 53ec 31bd 8d30 7abe 29d2 bb3c
000000c0: 19d4 db3d 9a55 57be 6f62 bdbc fe2a ca3e
000000d0: 6834 c7bd b9f0 4dbe 6f25 17be e864 c0bd
000000e0: 6fc9 ef3c fa7c 993d 9a2b 363e 51b8 473d
000000f0: 1deb f8bd 285e bcbd e428 263e cc09 473e
00000100: 86cb 8bbd cfe1 6ebd 00e1 693e 1018 74bb
00000110: e837 d8bd 6a1d f9bd 0e18 6e3d 11d1 b93d
00000120: 8a34 133e 57ff 9abb afdf 063c 85a6 ef3d
00000130: 0bcf 67be f0e5 75be 1c76 0bbd aeeb 0ebe
00000140: ca03 f2bd 43a5 0d3e 079e e4bd 770d 1cbe
00000150: 2a06 383b 20f5 ddbc dbab 1cbe 35f1 97bc
00000160: 1d1e 17be 5ec2 ba3e c6c3 6dbd 6834 0b3d
00000170: cfb4 c1be 6938 28be 4a1f 763d f09f 22bd
00000180: 8f31 a1be c0a8 2d3d 72b1 883e e62c bdbd
00000190: d91e 673d c9bf d2bd 4f98 edbd 7f9d 75bd
000001a0: c06b b4bd 587e a83a acda 54be 8973 d9bd
000001b0: 4e29 6dbd aca8 cebe 077d 03be a0ef 163d
000001c0: 2eb3 53be 361d 403e 7352 21bd 6b7a 1a3e
000001d0: 36fd 9dbe 5136 0a3d ac66 3b3c 92ec d33d
000001e0: 4367 953d 277a 47be 95e2 093e a412 32be
000001f0: 158a d43d 995c 3f3e 7c6b f13c 8f5f 963d
00000200: 3fa7 a3be 858f 213d d5e4 30be b3a8 86bd
00000210: 1bf5 17be 3d0b cfbd 92c7 02be a4e9 743e
00000220: 7d0f 0abd e883 2ebe 73a5 ff3b d71a 35be
00000230: dcf4 7ebd b79e 4b3e 1492 a53c 50b5 85bd
00000240: e47a 8d3e 7f50 583c 2ede 483d 87ca 86be
00000250: d32d 8bbd 672f 133e b5f6 4abe 70b1 8e3d
00000260: dbb4 c7bd 9594 8fbd a2e1 973d f202 71be
00000270: 648c 2fbe ac4f 613e d160 b0bd 74a7 423e
00000280: ea92 ec3d ab58 85bd b272 3d3c 4bd5 cfbd
00000290: e2fb c5be 37bf 5abd 00d9 86bc 6f82 a1be
000002a0: 2bb5 d1bd 899a dd3c 6379 b13d 2420 12be
000002b0: 0d55 d13e 470d 0abe cada 3cbd 9338 60bd
000002c0: 9adf 23be 8e93 0b3e e80c 683c d7e0 fc3d
000002d0: 1523 863d 6a24 20be d06e 223e 9f8d 04be
000002e0: cfd1 a0bc 5ce8 7ebb 879f 17bd 54ba febd
000002f0: 48f2 a83c 4952 5bbe 605c 19be adb3 c5bd
00000300: 5446 3d3d 74ef e9bd a40a 1bbe 6317 d13e
00000310: d0f0 9dbe 7200 8dbd c02b 4dbe 54be 313e
00000320: 9a68 f23d 50b1 8e3d dd04 26be 0762 1cbe
00000330: fd48 83bc ac8a 223e 012b 50be 77fa 5a3d
00000340: de90 88bd 2d5f 003c 0327 0fbe c23f 6339
00000350: 14b0 02bd 9053 243c 1bc6 023e 2003 0ebe
00000360: adb1 21bd 650c d53e 53c6 643e 344a 88be
00000370: 8158 08be d08b b8be 8170 913c 5b4f 603e
00000380: cc04 403e c50b 38bd 63d5 623e ac62 08be
00000390: 93a3 aebd 0273 42bb bbca d73c 7395 f33c
000003a0: f6dc c8bd 8ade e5bd 301c 42be 6cb5 81be
000003b0: 708d ebbd cc67 94be ef72 b6bd 2095 fbbd
000003c0: 4f28 c6be 8a4f 6e3a b3ab 683d 41a0 58bd
000003d0: 4fb3 b9be b496 c93e 47df 4f3e 73eb d2be
000003e0: 4715 8abe 65c5 e7bd 05c0 2b3d 0196 cb3c
000003f0: 10ea b5bd 83f2 9b3e 1caf fd3c ffbd 78bd
