load/solved-rapidly-0.02-interpolated/bs_layer_0_biases.npy (npy, 4128 bytes, 1 tensors)

array f4 [1000]
0	0x3d9f977b	0.077925645
1	0xbda7edcb	-0.08199652
2	0xba6ceb22	-0.0009037723
3	0x3ae2da45	0.0017307481
4	0x3cf0b025	0.029380867
5	0x3d39f95e	0.04540383
6	0x3d6380f1	0.05554289
7	0xbd33d09c	-0.043900117
8	0x3e1e1ea5	0.15441377
9	0x3cbccb50	0.023046166
10	0xbd34dea8	-0.044157654
11	0x3c8fb460	0.017542064
12	0xbd5663a2	-0.05234111
13	0x3d5903b6	0.052982055
14	0xbd2e854b	-0.042607587
15	0xbcc3d17d	-0.023903603
16	0x3cdf9319	0.027291821
17	0xbaa85c8e	-0.0012844966
18	0x3d832bb3	0.06404819
19	0x3c3c6a20	0.011499912
20	0x3e13dfca	0.14440838
21	0x3b4b1032	0.0030984995
22	0x3da8f0cc	0.08249053
23	0xbca778fa	-0.020443428
24	0x3c8faef1	0.017539473
25	0x3ce6e5cc	0.028185748
26	0xbd9529cd	-0.072833635
27	0x3e2be999	0.16788329
28	0x3da7e645	0.08198217
29	0x3b0ee03c	0.0021801135
30	0xb95886b6	-0.00020649549
31	0x3e4b5bd0	0.19859242
32	0x3e350fa7	0.17681752
33	0x3bacaaf9	0.005269405
34	0x3bb16b16	0.005414377
35	0x3e264c7b	0.16240112
36	0xbdbce630	-0.09223592
37	0x3bdf1eb1	0.0068090786
38	0x3da77378	0.08176321
39	0x3e144d46	0.14482602
40	0x3cf84f1c	0.03031116
41	0xbcfc5800	-0.03080368
42	0x3aee6a16	0.0018189575
43	0xbbc0ddb2	-0.005885803
44	0xbdb262e7	-0.087102704
45	0x3c2edb52	0.010672407
46	0x3e3573a8	0.177199
47	0xbc799e1f	-0.015235453
48	0xbb4d1966	-0.0031295656
49	0x3c38b61b	0.011273886
50	0x3d0b234c	0.03396921
51	0xb9410e6e	-0.0001841129
52	0xbd54d1a2	-0.051957734
53	0x3d725a2a	0.05916802
54	0x3df5e7ba	0.12007089
55	0xbd3bc12f	-0.04583853
56	0x3dcbd392	0.09952463
57	0xbd334f64	-0.043776885
58	0xbccf74fc	-0.025324337
59	0x3c7c83c8	0.0154122785
60	0xbd911c92	-0.070855275
61	0xbc574cb1	-0.013140843
62	0x3dd72196	0.10504453
63	0x3c5e6985	0.0135749625
64	0x3d9cd6ea	0.07658179
65	0x3d927b79	0.07152457
66	0x3dc981de	0.09839223
67	0xbd9f37e8	-0.07774335
68	0xbca0e73f	-0.019641517
69	0x3d5d20a6	0.053986214
70	0x3d20f178	0.039292783
71	0x3bca4311	0.0061725457
72	0x3d91548a	0.07096203
73	0x3d4e578f	0.05037647
74	0x3de17f72	0.110106364
75	0x3cfdace7	0.030966235
76	0xbd9566d2	-0.07295002
77	0x3e450b34	0.19242555
78	0xbd2de920	-0.042458653
79	0xbbfa9b63	-0.007647918
80	0x3d81a83f	0.063309185
81	0x3d017f15	0.031615335
82	0xbcbd5082	-0.023109678
83	0xbc2f96a7	-0.010717071
84	0x3b83bc4c	0.0040202495
85	0x3c4c1835	0.012456943
86	0x3da37302	0.079809204
87	0xbd5dfaa6	-0.054194115
88	0x3d5bc4d3	0.053654503
89	0xb988c805	-0.00026088968
90	0x3e022863	0.12710719
91	0xbda10f21	-0.07864214
92	0xb942a53c	-0.00018562836
93	0x3e1e21d8	0.15442598
94	0x3d88243c	0.06647536
95	0x3c7f965d	0.015599814
96	0xbdf601fc	-0.12012097
97	0x3daa596b	0.083178364
98	0x3dbaa940	0.09114313
99	0xbdc0e6c7	-0.09419017
100	0x3d9383a7	0.07202845
101	0x3d8cfa9c	0.068837374
102	0xbdb26dc7	-0.087123446
103	0xbd730a2d	-0.059335876
104	0x3e495505	0.19661339
105	0x3da06bd0	0.078330636
106	0x3d964e24	0.07339123
107	0xbc365715	-0.01112916
108	0x3d93bb46	0.07213454
109	0xb8b2ed14	-8.531861e-05
110	0x3c8202d6	0.015870493
111	0x3daa4671	0.08314217
112	0x3e1e7763	0.1547523
113	0xbd1f8eec	-0.03895466
114	0xbc5e5893	-0.013570922
115	0xbdd92654	-0.10603014
116	0xbb68ce2f	-0.0035523286
117	0x3d26fcdb	0.040768486
118	0x3d5bc50d	0.05365472
119	0xbd15bd84	-0.03655769
120	0xbb0c32d9	-0.0021392612
121	0xbc42ed10	-0.01189734
122	0x3d2e5ce0	0.04256904
123	0x3cea74e0	0.028620183
124	0x3e036ca0	0.12834406
125	0x3ca917ae	0.020641174
126	0xba6b1e51	-0.0008969056
127	0xbc859729	-0.01630743
128	0xbce4a593	-0.027910983
129	0xbc444044	-0.011978213
130	0xbd828ea4	-0.06374863
131	0x3dda7b3b	0.106680356
132	0x3c8b533a	0.017007459
133	0xbdadbd6b	-0.08483394
134	0xbcefcc02	-0.029272083
135	0xbabc6fa4	-0.0014376533
136	0x3d1f0ce4	0.038830653
137	0x3d6887c6	0.05677011
138	0x3d850839	0.06495709
139	0x3dc9f8f5	0.09861938
140	0x3dc16985	0.094439544
141	0xbc1011ad	-0.008793277
142	0x3c5398f4	0.012914885
143	0xbe0f06a6	-0.1396738
144	0x3cb19b9f	0.021680651
145	0xbe0a5d13	-0.13512067
146	0x3bbf0b9a	0.0058302404
147	0xbb387a0b	-0.0028148915
148	0x3e294dc3	0.1653357
149	0xbb970148	-0.004608307
150	0x3dfb3044	0.12265065
151	0xbcdb1010	-0.026741058
152	0x3d8194b5	0.06327192
153	0x3de1c8fc	0.11024663
154	0x3a5eedae	0.0008504045
155	0x3e04b5c4	0.12959963
156	0xbdbbfa17	-0.0917856
157	0xbd57b396	-0.0526615
158	0x3dc502f8	0.09619707
159	0x3c8a35bc	0.016871326
160	0xbd9569b0	-0.07295549
161	0xbdbb37bc	-0.0914149
162	0x3c770eed	0.015079242
163	0xbdf3c800	-0.11903381
164	0xb925df67	-0.0001581885
165	0xbccf5216	-0.025307696
166	0x3d2f6dc1	0.04282928
167	0xbd13ee3b	-0.036115866
168	0xbcc3707d	-0.02385735
169	0x3d227a16	0.03966721
170	0xbd52d2c6	-0.05147054
171	0x3da3e6f4	0.08003035
172	0xbab83297	-0.0014053163
173	0xbc1616b0	-0.009160683
174	0x3ca04820	0.019565642
175	0x3d7cb3b8	0.06169483
176	0xba0fe911	-0.00054897467
177	0x3dc68683	0.09693625
178	0x3e003d24	0.12523323
179	0xbcf9dcf8	-0.030500874
180	0xbd0c0753	-0.034186672
181	0xbc34b0d9	-0.011028492
182	0x3de5ce48	0.11220986
183	0xbd59e281	-0.053194527
184	0x3da37e65	0.07983092
185	0x3dde4e6d	0.10854802
186	0xbc78ea3f	-0.015192567
187	0x3d56355b	0.052296977
188	0x3ceba86c	0.028766833
189	0x3e435ab7	0.19077574
190	0x3df30638	0.118664205
191	0xbb0203a4	-0.0019838596
192	0xbd93d00a	-0.07217415
193	0x3d441c68	0.047878653
194	0xbd8cdb7f	-0.06877803
195	0xbb3b6cc6	-0.002859877
196	0x3d5274cc	0.051380917
197	0xbdf12378	-0.11774343
198	0xbdebfdf2	-0.115230456
199	0xbcf8e36b	-0.030381879
200	0x3ddbbbc0	0.1072917
201	0x3d613152	0.054978676
202	0xbd5c2c0e	-0.05375295
203	0x3da1a76d	0.07893262
204	0x3c5d7e3c	0.013518866
205	0x3da69637	0.0813412
206	0xbdb2b5c2	-0.08726074
207	0x3a81efd9	0.0009913399
208	0x3d20e7fc	0.039283738
209	0x3dbaed0c	0.09127244
210	0xbdb3f496	-0.087868854
211	0x3d1849dd	0.037179817
212	0xbd24207a	-0.040070035
213	0xb9e8a8d3	-0.00044376272
214	0x3cd6c39a	0.026216317
215	0xbda15f01	-0.07879449
216	0x3c4b20a4	0.012397919
217	0xbc82dd0f	-0.01597455
218	0x3d7f3760	0.06230867
219	0x3e693b77	0.2277659
220	0xbd7c9d8a	-0.06167368
221	0xbd1af490	-0.03783089
222	0x3d66fd86	0.056394123
223	0xbc0e643f	-0.008690893
224	0xbca28ea4	-0.019843407
225	0x3d8035a9	0.06260235
226	0x3a71a260	0.0009217616
227	0x3d6181a5	0.05505528
228	0x3d9e5762	0.07731511
229	0xbcbd6f6e	-0.023124423
230	0x3d27dbbb	0.040981036
231	0x3d9a4230	0.075321555
232	0x3d3a6e2b	0.04551522
233	0xbddeb9fc	-0.108753175
234	0xbd3eebb5	-0.046611506
235	0x3e5583c7	0.2085105
236	0x3c8afd72	0.016966555
237	0x3e3df0e0	0.18548918
238	0xbd450765	-0.048102755
239	0xbca87d65	-0.020567605
240	0xb8e19e0f	-0.00010758277
241	0x3c7bdc17	0.015372298
242	0x3d958be3	0.07302072
243	0xbd9fed60	-0.078089476
244	0xbb3422be	-0.0027486528
245	0xb9f28eac	-0.00046264136
246	0xbd1c55ba	-0.038167693
247	0xbbe4cc78	-0.0069823824
248	0xbacc56cf	-0.0015589836
249	0xbc054bb0	-0.008135721
250	0x3d849154	0.06473032
251	0x3cdb37f1	0.026760073
252	0x3dc51f87	0.09625154
253	0x3d120fdb	0.035659652
254	0xbb6cb5c7	-0.003611909
255	0x3d876f68	0.06613046
