load/solved-rapidly-0.02-interpolated/critic_layer_batch_norm_a_1.npy (npy, 4128 bytes, 1 tensors)

array f4 [1000]
-0.23911704 0.23255503 0.26152137 0.022544304 0.023869682 -0.20985629 0.031251483 -0.24305066
-0.10935377 -0.0006734566 -0.26552477 -0.21903975 0.0008785959 -0.032403346 -0.14108695 -0.14497085
0.0013027701 -0.048123874 -0.10402552 -0.023187598 0.023944695 0.23355047 0.053227138 0.17587234
-0.2364244 0.21760505 -0.32295948 0.022580504 -0.14466047 -0.2201035 0.033556983 -0.0104326615
-0.08498182 -0.019668534 0.10951866 -0.0020302294 0.00617869 -0.25939083 -0.17959066 0.036651857
-0.04291208 -0.24572487 -0.103158526 0.23873554 -0.11869628 -0.091895975 -0.10778959 -0.098042116
0.035958175 0.23005266 -0.21771671 0.0382018 -0.04975605 -0.12736158 0.045439437 0.024617039
-0.21156362 -0.28145862 -0.23928556 -0.03346258 -0.22347866 0.03637089 0.24895793 -0.082428716
0.21658239 -0.053510837 -0.093870185 0.22677319 -0.10972169 -0.02654042 -0.03585212 -0.034462966
0.005424535 -0.10696154 -0.07757678 0.037597504 -0.000794037 -0.17330492 0.03703976 0.24442354
-0.046542928 -0.08766264 -0.12152017 0.0065919985 0.23328294 0.111203104 -0.10237414 -0.24709246
-0.09352299 -0.09904978 -0.00048674014 0.00083222013 0.03403424 0.009628283 0.15580834 -0.08817185
0.19436195 0.08465501 -0.06068992 -0.04383269 -0.021926757 -0.3617472 0.016640566 0.20455377
-0.054837827 0.24360645 -0.22457689 0.07771983 -0.10062299 -0.22623597 0.15809849 -0.22705932
-0.13188231 -0.020905957 -0.06812879 -0.20294654 0.013053941 -0.23512566 -0.009317699 -0.011190567
0.02756628 0.05226251 -0.04654159 -0.2519549 -0.2994707 0.02424982 -0.22679055 -0.10366443
-0.079235524 -0.10523213 -0.1966663 -0.029458577 -0.037560176 -0.19590396 -0.1452916 0.012128923
-0.02112032 -0.0004926737 -0.010144157 0.001989635 -0.07263506 -0.17193586 -0.098453276 -0.031142058
0.023459144 0.2604145 0.027361793 -0.27862042 -0.022664782 0.23006117 -0.2606601 -0.11878682
-0.047700312 0.027231274 -0.027699446 -0.16491953 -0.09745771 -0.0669933 0.22904271 -0.011125563
0.006897034 -0.10445161 -0.31458044 0.007547798 -0.043478265 -0.07120035 0.03255475 0.021158922
-0.21393184 0.20859526 -0.11592464 -0.05430617 -0.011916116 0.24427804 0.028327089 -0.019032272
-0.16636628 -0.033678066 -0.3121609 -0.17152548 -0.17691608 0.08818705 -0.012097505 0.086005524
-0.16576599 -0.18550012 -0.32983905 -0.1166834 -0.013237915 -0.08236554 -0.059214026 0.039322246
0.0387291 -0.24663626 0.09090508 0.011532171 -0.03951382 0.062375437 0.011625721 -0.18385258
0.062237766 -0.13858996 0.05692142 0.046496972 0.21790573 -0.03541665 0.002518017 0.16032925
0.019850025 0.025951888 0.056914724 -0.08805739 0.15414608 -0.25953856 0.008808175 0.0027150428
-0.23125334 -0.005613601 -0.2681237 -0.11362763 -0.06344836 0.1859671 0.0024580022 0.111289
0.2540956 -0.048396595 0.22298516 -0.040564742 -0.123634875 -0.14135645 -0.13425066 -0.025744447
0.021575438 -0.30844754 -0.039565895 0.15942603 0.032742675 -0.22474098 -0.017096214 -0.004977368
0.2542583 -0.263185 -0.29491025 0.020302143 -0.024343552 -0.22334188 -0.123158306 -0.21057117
-0.14302549 -0.22210005 -0.042609762 -0.096763946 0.16660255 -0.016308023 -0.04831136 -0.087890245
00000000: 19db 74be e822 6e3e 21e6 853e d5ae b83c
00000010: 5a8a c33c 91e4 56be 8e01 003d 46e2 78be
00000020: dff4 dfbd e88a 30ba ddf2 87be f54b 60be
00000030: 9351 663a 5fb9 04bd 1979 10be 3d73 14be
00000040: b6c1 aa3a 8a1d 45bd 550b d5bd ebf3 bdbc
00000050: aa27 c43c db27 6f3e b304 5a3d e117 343e
00000060: 3d19 72be dcd3 5e3e f25a a5be c0fa b83c
00000070: e021 14be d062 61be 0c73 093d c1ed 2abc
00000080: f30a aebd e81f a1bc 524b e03d 990d 05bb
00000090: 9c76 ca3b e0ce 84be 9de6 37be 4220 163d
000000a0: 94c4 2fbd 4d9f 7bbe c744 d3bd 1777 743e
000000b0: 0917 f3bd f533 bcbd cac0 dcbd 4eca c8bd
000000c0: e148 133d ed92 6b3e 21f1 5ebe 7e79 1c3d
000000d0: 00cd 4bbd 136b 02be b41e 3a3d aca9 c93c
000000e0: 22a4 58be 581b 90be 4607 75be 0f10 09bd
000000f0: 97d7 64be a4f9 143d d4ee 7e3e 63d0 a8bd
00000100: c6c7 5d3e 2e2e 5bbd 033f c0bd 3b37 683e
00000110: c4b5 e0bd 4b6b d9bc acd9 12bd 0a29 0dbd
00000120: 4cc0 b13b a70e dbbd 93e0 9ebd d7ff 193d
00000130: ec26 50ba d876 31be 01b7 173d 2a4a 7a3e
00000140: cca3 3ebd 7888 b3bd 91df f8bd b101 d83b
00000150: b9e1 6e3e 74be e33d 88a9 d1bd ce05 7dbe
00000160: fb88 bfbd 9cda cabd 2831 ffb9 5929 5a3a
00000170: 7d67 0b3d f2bf 1d3c 398c 1f3e 7193 b4bd
00000180: d206 473e 9b5f ad3d fe95 78bd e889 33bd
00000190: be9f b3bc ee36 b9be cc51 883c 8b76 513e
000001a0: a19d 60bd f873 793e 7cf7 65be 932b 9f3d
000001b0: 6d13 cebd 67aa 67be 92e4 213e 3d82 68be
000001c0: 280c 07be f842 abbc 1b87 8bbd 38d1 4fbe
000001d0: 32e0 553c c8c4 70be 43a9 18bc a458 37bc
000001e0: aed2 e13c 3711 563d 65a2 3ebd 3c00 81be
000001f0: 3954 99be 8fa7 c63c c83b 68be 044e d4bd
00000200: 3c46 a2bd f183 d7bd e462 49be 1d53 f1bc
00000210: b3d8 19bd 0c9b 48be 52c7 14be 64b8 463c
00000220: 8504 adbc c626 01ba ae33 26bc 8964 023b
00000230: b1c1 94bd f40f 30be dfa1 c9bd a11d ffbc
00000240: 642d c03c 0d55 853e d725 e03c 56a7 8ebe
00000250: 7eab b9bc 2895 6b3e 3e75 85be 8146 f3bd
00000260: 6761 43bd 1f14 df3c f3e9 e2bc aae0 28be
00000270: e897 c7bd c933 89bd 2c8a 6a3e fe47 36bc
00000280: 8400 e23b baea d5bd b010 a1be 8553 f73b
00000290: 4416 32bd 7dd1 91bd 2158 053d 7a55 ad3c
000002a0: f310 5bbe ff99 553e e669 edbd 2670 5ebd
000002b0: d03b 43bc 0624 7a3e 360e e83c 91e9 9bbc
000002c0: ec5b 2abe 03f2 09bd 8ed3 9fbe 60a4 2fbe
000002d0: 7d29 35be 699b b43d 9d34 46bc aa23 b03d
000002e0: 8fbe 29be bef3 3dbe aae0 a8be b5f7 eebd
000002f0: d7e3 58bc 44af a8bd 688a 72bd 5d10 213d
00000300: 68a2 1e3d 378e 7cbe 712c ba3d 6ef1 3c3c
00000310: 3ed9 21bd 637d 7f3d cf79 3e3c da43 3cbe
00000320: 07ed 7e3d 87ea 0dbe 6f26 693d 9c73 3e3d
00000330: ae22 5f3e 0d11 11bd 5105 253b 5a2d 243e
00000340: 859c a23c 0e99 d43c 6a1f 693d 6f57 b4bd
00000350: 78d8 1d3e 3de2 84be 2a50 103c dcee 313b
00000360: adcd 6cbe 4cf2 b7bb 8247 89be 9ab5 e8bd
00000370: 37f1 81bd 296e 3e3e 6f16 213b 7deb e33d
00000380: d218 823e 823b 46bd 3956 643e 3727 26bd
00000390: 4834 fdbd bfbf 10be 0179 09be 05e6 d2bc
000003a0: f9be b03c d6ec 9dbe d90f 22bd 9440 233e
000003b0: 2f1d 063d 8022 66be 5c0d 8cbc 3019 a3bb
000003c0: 252e 823e 2fc0 86be 7afe 96be ae50 a63c
000003d0: 216c c7bc bcb3 64be 6c3a fcbd f89f 57be
000003e0: 4675 12be 326e 63be 9387 2ebd 2d2c c6bd
000003f0: dc99 2a3e 6798 85bc 22e2 45bd cdff b3bd
