load/solved-rapidly-0.02-interpolated/critic_layer_0_biases.npy (npy, 4128 bytes, 1 tensors)

array f4 [1000]
000000 9c 2a ca 3d e7 89 12 bc a8 df 06 bc 49 79 ec bd
       0.09871408 -0.008944011 -0.008232035 -0.11546571
000010 e9 59 13 be 4f de 1e bc a3 0b 74 be 39 14 d5 bb
       -0.14389767 -0.009696557 -0.23832564 -0.006502655
000020 d4 96 27 bd d7 09 2f be ac 41 1a 3d 11 b1 7c 3c
       -0.040915325 -0.17093597 0.037660286 0.015423075
000030 b1 d1 6b be 88 4c ee bd 1f cc b6 3d a3 f4 e4 bd
       -0.2302921 -0.11635691 0.08925652 -0.11179473
000040 4b 90 5c be 25 f9 55 be 37 d9 30 3c f2 59 37 bc
       -0.21539418 -0.20895822 0.010793976 -0.011190878
000050 03 3b e1 3b 98 06 dc bb b2 1f b4 39 a6 a9 fc bb
       0.00687349 -0.006714653 0.0003435589 -0.0077106534
000060 23 87 0a bc b7 d1 c6 bb 21 34 5c 3e 17 e2 3b bd
       -0.008455071 -0.0060674804 0.2150426 -0.045869913
000070 b1 9f 39 be cf ed 11 bc d9 21 b0 3c f3 e1 ad bd
       -0.18127324 -0.008906796 0.021500515 -0.08490362
000080 e8 1a 4f be e9 ce 91 be 63 59 62 bc c5 d8 70 bd
       -0.20225108 -0.28478172 -0.013815257 -0.058800478
000090 4d af 31 be 02 cf 39 bc 91 81 24 bc 0d 1f 35 3d
       -0.17352028 -0.011340858 -0.010040657 0.044219065
0000a0 d8 b7 67 bc 69 3c f6 bb 81 36 ba bd 28 37 0c bc
       -0.014142953 -0.0075145257 -0.09092427 -0.008558072
0000b0 20 f6 e4 bb 85 07 97 3d 01 49 52 3c 6d b8 ee 3c
       -0.006987348 0.07374481 0.012834788 0.029140675
0000c0 03 ba 73 be cb ae fa bb bb 48 04 3d 2a 58 c4 bc
       -0.23801427 -0.0076502315 0.032295924 -0.023967821
0000d0 6c 67 e5 bb 31 e6 54 bd 41 ac 6e bc 8b f3 62 3d
       -0.0070008542 -0.05197734 -0.014567436 0.055408042
0000e0 ee 0c 6f 3d 45 11 45 3e 9b 22 81 bc d2 17 65 be
       0.05836194 0.19244869 -0.015763571 -0.22372368
0000f0 0c 8d c1 bb 4b a1 25 bd be 78 e3 bb 07 25 9b bc
       -0.0059067067 -0.040437024 -0.006941884 -0.018938554
000100 50 bd 01 bc 13 f8 f6 3a ba 15 60 bd 2f 22 29 bc
       -0.007918671 0.0018842242 -0.05470822 -0.010323091
000110 4f 60 4b be ac d8 3f be e7 5e c6 3d 07 1f 95 3d
       -0.19860958 -0.18734998 0.0968607 0.072813086
000120 19 c1 27 be 68 d8 3c b9 03 30 aa bc 7d 35 de 3d
       -0.16382255 -0.00018009695 -0.020774847 0.10850046
000130 76 a8 13 be ca 4c 4f 3d a1 b8 75 bc bc 7e ec bb
       -0.14419731 0.05061034 -0.014997632 -0.0072172564
000140 7e f3 ec bc cd 2b 60 be 1d 73 e2 3d 7f 1d 19 be
       -0.0289247 -0.21891709 0.11057112 -0.14952658
000150 85 d4 da bb 34 cf 0d bc 14 04 8f bc 57 64 27 3d
       -0.0066781663 -0.008655358 -0.017458 0.040867176
000160 77 db 00 bd af ef 3a bc d8 b3 19 bd 7a bd cb bb
       -0.031459298 -0.011409684 -0.037525028 -0.0062176557
000170 53 8d c8 bd 21 d8 55 be 9f e3 05 bc 0c 32 49 3d
       -0.097925805 -0.20883228 -0.008171945 0.049119994
000180 d5 88 03 bc ff 53 b9 3d c3 08 46 3c 95 3d cd bc
       -0.008028229 0.09049224 0.01208705 -0.025053779
000190 77 a1 83 be 09 b3 4b 3e cd 19 3d be 41 12 0e bc
       -0.25709125 0.19892515 -0.18466873 -0.008671344
0001a0 9f b6 8a bd fe 55 2a bc 75 d3 1a 3d 72 c6 32 bd
       -0.067731135 -0.010396479 0.037799317 -0.043646283
0001b0 77 7f 9a bc 94 97 c2 bb f3 94 46 bc 63 d8 c3 bb
       -0.018859608 -0.0059384797 -0.012120473 -0.005976723
0001c0 9b 08 c8 bd 67 e2 15 be ef 2b 5a be 63 74 15 bc
       -0.09767266 -0.14637147 -0.21305822 -0.009121987
0001d0 da 30 41 3d 76 2c c4 bb 4e af 0e be b6 56 eb bc
       0.04716573 -0.0059867455 -0.13934061 -0.02872787
0001e0 99 2d 2a be 6c 33 81 bd 09 25 63 be 97 94 c8 bb
       -0.16618957 -0.06308636 -0.22182097 -0.006121229
0001f0 f2 3b d3 bb 09 d4 3c be 71 83 2d bc 5c 07 c3 3d
       -0.006446355 -0.1844026 -0.01059042 0.09522888
000200 9e 75 e6 bd 14 40 9c bd 1e cf a2 bc 9b c5 3e bd
       -0.112529024 -0.076294094 -0.019874152 -0.04657517
000210 53 11 70 bb 39 14 29 bb 7e b3 1d bd 94 f3 69 be
       -0.003663142 -0.0025799407 -0.038501255 -0.22846824
000220 93 80 03 be e9 67 c9 bd 8d c2 72 be c4 f1 a2 bc
       -0.12842016 -0.098342724 -0.23707028 -0.019890673
000230 16 94 7f 3d ee 73 86 bb ce 60 3a bd a3 fb 7a 3d
       0.062397085 -0.0041031754 -0.045502476 0.061275136
000240 12 05 59 be d8 19 f8 bb 0a 83 4c 3c 32 9c 33 3e
       -0.2119334 -0.00757144 0.012482414 0.17540053
000250 4d 28 33 be ad 09 45 bc 26 fa fa bb 9f dd d5 bb
       -0.17495842 -0.012026233 -0.0076592145 -0.0065266634
000260 63 a2 ca bd 07 74 35 be 02 45 c8 bc 0f ea ca bc
       -0.09894254 -0.17720042 -0.024446968 -0.024769811
000270 69 9f 90 bc 48 41 fa 3c 78 2b e2 bb 17 8f d9 bd
       -0.017654138 0.030548707 -0.0069021545 -0.10622995
000280 cd f4 78 be 6a 84 16 bd 28 c9 2d 3e 09 5c 13 bc
       -0.24312134 -0.036747374 0.16971266 -0.008994111
000290 c6 50 76 be 92 bc 10 bb 44 c4 5e be 9e eb 0f be
       -0.2405425 -0.0022085053 -0.21754557 -0.14054725
0002a0 ce c6 1b 3e 84 28 12 bc 8c d3 91 3c 1f aa 23 bd
       0.15212557 -0.0089207925 0.017801069 -0.039957162
0002b0 7e 21 5e be 05 38 c4 bb b7 ab 1d be 0e 5e 3d 3d
       -0.21692464 -0.0059881234 -0.15397535 0.046232276
0002c0 92 35 7c bd e9 73 5b be 6f 1f e7 3d f6 f2 21 bd
       -0.061574526 -0.21430935 0.11285292 -0.039538346
0002d0 18 7b 28 3e b4 4f 51 3d 70 86 21 be 2d c6 ed bb
       0.16453207 0.0511014 -0.1577394 -0.0072562904
0002e0 b6 ab 88 bd 8f 4c e9 3d a2 58 26 3e 22 f7 eb 3c
       -0.06673376 0.113915555 0.16244748 0.028804366
0002f0 3e 3e b6 3d aa 52 0d be cb a3 b0 3c f7 7e 5d bc
       0.088985905 -0.13801065 0.021562478 -0.01351904
000300 51 65 51 bc c0 2e 1c 3d fd 1f f8 3a 94 29 d5 3d
       -0.012780503 0.03813052 0.0018930432 0.10408321
000310 d5 2a a4 be f9 d8 f1 bc 85 aa 54 be 79 3d b7 bb
       -0.32063928 -0.029522406 -0.20768173 -0.005592045
000320 86 87 25 bd a3 5f d0 bc 38 15 65 ba 3c 0f fa bb
       -0.04041245 -0.025436228 -0.00087388186 -0.0076312106
000330 4c e4 09 bc 5f 12 7a be 23 04 77 be 2e 19 c4 bb
       -0.008416247 -0.2442107 -0.24122672 -0.005984447
000340 1e a8 25 be 45 7c 22 be 05 8a 30 be fb 73 37 be
       -0.16177413 -0.15867718 -0.1724015 -0.17915337
000350 38 06 08 bc e7 8a 68 bc 3b 51 5b be 1b 05 60 bd
       -0.008302264 -0.014193273 -0.21417706 -0.05469237
000360 6b 83 07 3e 3a 98 51 be 12 a7 04 3e f5 10 c1 bb
       0.13233726 -0.20468226 0.12954357 -0.005891914
000370 09 61 40 3d 21 62 bd 3d cc ad 6a be 04 7c 81 bc
       0.04696754 0.09247232 -0.22917861 -0.015806206
000380 3a 47 0d bc af e8 44 be f3 20 db bb 2b be af bb
       -0.008622939 -0.19229387 -0.0066872775 -0.005363246
000390 55 12 03 bd ee 52 36 3c 38 fc 0d 3e e9 d9 65 3d
       -0.031999905 0.01112817 0.13865745 0.05611602
0003a0 a7 7b 05 bd de df a8 3d 36 11 ba bc 3b 56 87 3d
       -0.032588627 0.08245824 -0.022713285 0.06608244
0003b0 80 e4 38 be 84 36 83 3b 85 f4 a3 bc 2b f6 cd bd
       -0.18055916 0.0040043015 -0.020014057 -0.100567184
0003c0 6d d1 1e bc 2f 97 0e bc 01 23 3c 3e a9 10 16 be
       -0.009693486 -0.008703037 0.18372728 -0.14654793
0003d0 38 e3 20 be f9 3a 8f bb 9e a9 07 be 0f 00 96 bc
       -0.15711677 -0.0043710438 -0.13248298 -0.018310575
0003e0 c6 e9 20 bd d5 d2 bf bb b8 04 08 bd 40 92 59 bc
       -0.039285444 -0.0058539906 -0.033207625 -0.013279498
0003f0 47 da fa bc 76 dc 3e be 3a d6 c4 bc e7 bb 36 be
       -0.03062166 -0.18638787 -0.024027932 -0.17845117
